outputs/models/BE_gru_model.pt (torch, 199993 bytes, 12 tensors)

gru.weight_ih_l0 f4 [192, 1]
0.37139294 -0.17527284 -0.04268968 0.056555387 0.23572394 0.27080345 0.118006475 0.11125696
0.38135922 0.21052323 0.31941462 -0.27137163 -0.03471415 -0.32052484 0.2659887 0.040789604
0.16218226 0.042840216 -0.22801994 0.124026954 -0.3975955 0.016407391 -0.20771277 0.18973437
0.17015322 0.08635542 0.024774203 -0.22728616 0.24753542 -0.16377696 -0.102329105 0.24368736
0.45864654 0.078617245 0.2884188 0.16314419 -0.019981423 0.012777469 0.1958962 0.11082327
0.022430196 0.32604817 0.19585486 0.3960467 -0.78814244 0.6801743 0.3444951 -0.13387541
0.18596898 0.12657227 0.4072315 0.23218685 0.55554867 0.16594931 -0.12741436 0.1831688
0.15078148 -0.17080331 -0.36566314 0.4447549 0.09955013 -0.12711813 -0.09482635 0.17101242
-0.027766405 -0.26225576 -0.06944302 -0.28299934 -0.45399794 0.16423886 -0.2917665 -0.113356926
0.33869335 -0.21268182 -0.10278289 -0.45880732 -0.12724029 -0.48207507 0.83194983 0.07267307
-0.02747559 0.23433474 0.06883466 -0.40891322 -0.27162433 -0.07243163 0.13058689 -0.13769184
0.03021627 -0.45904434 -0.13047788 -0.49647254 -0.28265616 0.14082216 0.041567817 -0.029211575
-0.351631 -0.39147723 -0.14651173 0.13079426 -0.35857013 -0.19137165 -0.11024596 0.46335444
-0.030030232 -0.21597455 -0.18532152 -0.21682943 0.12575364 0.25846314 -0.064340055 -0.3188371
0.24108417 -0.21027291 0.24391377 0.00989451 0.77127147 -0.03621593 -0.057937622 -0.30898482
-0.14112087 0.08447276 -0.06786192 -0.010598222 -0.18358491 -0.24979502 -0.020496543 0.095821194
0.39292765 -0.15623227 0.22814612 0.3080491 0.46224216 0.30488816 0.45129055 0.090338804
0.262751 0.47348785 0.48626223 0.33691117 0.38468128 0.10038903 -0.16918571 0.07929431
-0.21750733 0.12841344 -0.08480593 0.023442905 -0.16228184 0.13378507 0.04765092 0.11951371
0.047822732 0.24909757 0.36534795 -0.16659677 -0.019980067 -0.14235076 0.08582119 -0.033124994
0.4418532 0.38048515 0.11445958 -0.13784738 0.32053354 -0.10047024 -0.41893092 -0.32237563
0.05373039 0.017644446 0.4243303 0.4529459 -0.006689922 0.22547927 -0.08658176 0.12155654
-0.092895314 0.2712337 0.31306255 -0.13822089 0.2947641 -0.07801999 0.22498162 0.42588228
-0.019843467 0.066982456 -0.0013246243 0.2922742 -0.11221144 -0.4361336 -0.18765269 0.32419845
00000000: 3727 be3e b97a 33be 60db 2ebd 9fa6 673d
00000010: 9e61 713e c0a6 8a3e 61ad f13d b0da e33d
00000020: 8441 c33e 6793 573e 508a a33e 39f1 8abe
00000030: 6d30 0ebd d51b a4be ac2f 883e 0013 273d
00000040: 1b13 263e 3979 2f3d 0f7e 69be d801 fe3d
00000050: a391 cbbe cb68 863c a8b2 54be ba49 423e
00000060: a53c 2e3e 1cdb b03d 45f3 ca3c b4bd 68be
00000070: ed79 7d3e 26b5 27be ec91 d1bd 2e89 793e
00000080: b8d3 ea3e 1402 a13d a1ab 933e 450f 273e
00000090: 15b0 a3bc 9758 513c 0399 483e 50f7 e23d
000000a0: 88bf b73c c9ef a63e 2d8e 483e a2c6 ca3e
000000b0: b4c3 49bf e71f 2e3f a961 b03e a316 09be
000000c0: a76e 3e3e 299c 013e a680 d03e 64c2 6d3e
000000d0: 7038 0e3f 9eee 293e e978 02be 9a90 3b3e
000000e0: 7666 1a3e 10e7 2ebe 3338 bbbe eab6 e33e
000000f0: f0e0 cb3d 412b 02be 5134 c2bd e11d 2f3e
00000100: 5f76 e3bc 6346 86be 2438 8ebd 4ae5 90be
00000110: 6b72 e8be 3b2e 283e 6b62 95be ad27 e8bd
00000120: 3769 ad3e 43c9 59be d67f d2bd cbe8 eabe
00000130: 474b 02be 8bd2 f6be aafa 543f 9ed5 943d
00000140: 7d14 e1bc 72f5 6f3e 30f9 8c3d 135d d1be
00000150: 5812 8bbe 0957 94bd 92b8 053e 17ff 0cbe
00000160: 1c88 f73c dc07 ebbe fe9b 05be a631 febe
00000170: 4fb8 90be af33 103e 0443 2a3d 1d4d efbc
00000180: fa08 b4be b46f c8be 2c07 16be eeee 053e
00000190: 8196 b7be eef6 43be a2c8 e1bd cb3c ed3e
000001a0: f601 f6bc 6f28 5dbe edc4 3dbe 8908 5ebe
000001b0: 90c5 003e 4855 843e b8c4 83bd 9e3e a3be
000001c0: c5de 763e c851 57be 88c4 793e 951c 223c
000001d0: 0c72 453f 2857 14bd 0050 6dbd 4233 9ebe
000001e0: fd81 10be 0e00 ad3d 31fb 8abd 2aa4 2dbc
000001f0: affd 3bbe 44ca 7fbe 5ee8 a7bc e73d c43d
00000200: d02d c93e 5afb 1fbe 239f 693e 9db8 9d3e
00000210: 01ab ec3e 4d1a 9c3e 8e0f e73e 8d03 b93d
00000220: 4d87 863e 006d f23e 5df7 f83e 9f7f ac3e
00000230: f2f4 c43e c498 cd3d 053f 2dbe 0e65 a23d
00000240: 3eba 5ebe d07e 033e bbae adbd 560b c03c
00000250: 362d 26be f4fe 083e 9c2d 433d 9bc3 f43d
00000260: c5e1 433d 6f13 7f3e e30e bb3e 5898 2abe
00000270: 3dad a3bc 66c4 11be 05c3 af3d 13ae 07bd
00000280: 953a e23e f3ce c23e c969 ea3d dd27 0dbe
00000290: f91c a43e 57c3 cdbd 1d7e d6be 6b0e a5be
000002a0: 6614 5c3d 168b 903c d241 d93e 86e8 e73e
000002b0: 2237 dbbb 0ae4 663e c751 b1bd a3f2 f83d
000002c0: e63f bebd 25df 8a3e bc49 a03e c789 0dbe
000002d0: 52eb 963e f2c8 9fbd 9561 663e 3e0d da3e
000002e0: c48e a2bc 192e 893d 049f adba f7a4 953e
000002f0: 1dcf e5bd e74c dfbe 0728 40be 57fd a53e

gru.weight_hh_l0 f4 [192, 64]
-0.19863605 0.0825688 -0.06332116 0.12142968 -0.21171546 0.0991273 -0.050965693 -0.08140619
0.014559732 0.049038492 0.099364944 0.025036028 0.1083152 -0.12249377 -0.12560984 -0.012748603
-0.032940228 -0.009186048 0.103989884 -0.021606822 0.16569349 -0.1892516 -0.19055682 -0.03556143
-0.010197158 -0.030776344 0.08787227 -0.07029536 -0.3305564 -0.161905 0.11553873 0.12347176
-0.13959903 0.0346327 0.14248176 0.0861064 -0.000915799 -0.007142847 -0.041275594 -0.13983406
0.11895682 -0.12453189 -0.15237066 -0.020865439 -0.013494955 0.14328548 0.04543907 -0.16610543
0.063911654 0.15514658 -0.027112981 0.10051795 -0.0499377 -0.025682325 0.18416154 0.00032721108
0.11897069 -0.012931168 -0.11896664 -0.12799303 -0.21712603 0.0136852795 0.031726748 0.100338876
-0.1356912 -0.34606165 -0.18936004 0.0731058 0.189643 -0.22801657 0.14816171 -0.20291914
-0.251994 -0.15279534 0.007477662 -0.07168072 0.032432392 -0.39925337 0.26478082 -0.33491725
0.17282654 0.18462601 -0.09067801 -0.2964281 -0.5273032 -0.3789169 0.25170994 -0.15005293
0.19517617 0.10293175 -0.14471301 0.77588475 0.029868934 0.3565224 -0.36996785 0.23193333
-0.052883767 0.0380215 -0.30303058 -0.19314097 0.12752505 0.033516895 0.058150418 0.30971208
-0.4326072 0.1227888 -0.022757588 0.0989471 -0.048164204 0.31596166 0.14630851 0.33049336
0.20426883 0.25502017 -0.21806829 0.30055702 0.50171465 0.31491452 0.23258488 0.10693169
-0.12906866 0.03212229 0.36631885 -0.2835905 0.17238775 -0.011972432 0.13929296 -0.26619324
-0.12207378 0.113831714 -0.001187089 -0.06489156 -0.11733915 0.03490649 -0.11679694 -0.117106766
-0.0153839495 0.25335538 -0.14347653 0.12569018 -0.1747869 -0.42095214 0.08853121 -0.046733208
-0.10980877 0.073925324 -0.08862833 -0.21189159 0.00050615135 -0.0692711 0.29613897 0.27469662
0.2089313 0.20648357 -0.064789146 0.22528675 0.09064719 -0.026883468 -0.10701912 -0.02973731
-0.09707277 -0.01115863 0.16010503 -0.078159824 -0.23947382 -0.18046929 -0.039853577 -0.18542923
-0.22382848 0.16932175 -0.06697743 -0.098059736 0.10155148 0.1715614 -0.0864412 0.11210296
-0.16724904 0.010272416 -0.19706935 -0.09562474 -0.32066977 0.2357619 -0.092744656 -0.2108791
0.110226795 0.093141854 -0.0923522 0.14736618 0.1633075 -0.018458456 -0.1254332 -0.16191128
-0.017028825 0.012376349 0.097033635 -0.24195935 0.07067292 0.011079308 -0.09228116 -0.35374844
0.054971624 -0.17665792 -0.08026413 -0.24367276 -0.020565763 -0.08350886 0.12643045 0.13738947
0.23621203 0.0061130454 0.009607194 0.1248371 0.1644099 -0.050933618 -0.13206944 -0.12506457
0.13694854 -0.11437901 -0.17209147 -0.026353965 0.13578074 0.18013868 0.18700923 0.07223839
-0.2898148 -0.13013949 -0.19923654 -0.34822157 -0.08125511 0.08016462 0.05555544 -0.031195449
0.020631906 0.15798272 0.12828378 -0.044349853 0.085888006 -0.011738137 0.27529746 0.027597591
0.21102318 0.2522102 -0.24062382 0.11761297 0.12401248 0.11119785 0.04319517 0.10954155
-0.15691298 -0.10719029 0.044649623 -0.17232141 0.14861959 -0.02762119 0.1917745 0.05756469
00000000: 4067 4bbe d519 a93d 86ae 81bd 20b0 f83d
00000010: f0cb 58be 4103 cb3d 67c1 50bd 4ab8 a6bd
00000020: f18b 6e3c 96dc 483d d97f cb3d 5b18 cd3c
00000030: 5cd4 dd3d 04de fabd de9f 00be 84df 50bc
00000040: 55ec 06bd 1481 16bc a6f8 d43d ca00 b1bc
00000050: 8eab 293e 2ccb 41be 5421 43be dda8 11bd
00000060: fb11 27bc ac1e fcbc 60f6 b33d 04f7 8fbd
00000070: b03e a9be 6dca 25be 929f ec3d c3de fc3d
00000080: 0cf3 0ebe 05db 0d3d bde6 113e 8d58 b03d
00000090: 3b12 70ba 8b0e eabb 9910 29bd a930 0fbe
000000a0: a29f f33d 930a ffbd 0e07 1cbe ffed aabc
000000b0: f219 5dbc 6eb9 123e 511e 3a3d 8b17 2abe
000000c0: 1de4 823d bfde 1e3e 0b1c debc 5bdc cd3d
000000d0: 798b 4cbd bd63 d2bc d894 3c3e 878d ab39
000000e0: e8a6 f33d 40dd 53bc c8a4 f3bd 9b10 03be
000000f0: 4956 5ebe 3938 603c e8f3 013d 787e cd3d
00000100: a2f2 0abe fe2e b1be 99e7 41be 7eb8 953d
00000110: c631 423e 2d7d 69be b4b7 173e 09ca 4fbe
00000120: 5c05 81be 6276 1cbe 2d07 f53b 57cd 92bd
00000130: d4d7 043d f06a ccbe 5a91 873e 467a abbe
00000140: 71f9 303e 9a0e 3d3e 64b5 b9bd 6dc5 97be
00000150: 58fd 06bf 6501 c2be 20e0 803e 7aa7 19be
00000160: 43dc 473e e2cd d23d a62f 14be 62a0 463f
00000170: b2af f43c 1b8a b63e 6d6c bdbe ee7f 6d3e
00000180: a69c 58bd 6fbc 1b3d d326 9bbe bfc6 45be
00000190: ed95 023e 0349 093d 222f 6e3d 9592 9e3e
000001a0: b17e ddbe b278 fb3d 1f6e babc c7a4 ca3d
000001b0: d447 45bd bac5 a13e e6d1 153e 6d36 a93e
000001c0: d92b 513e 0192 823e 4b4d 5fbe 9ce2 993e
000001d0: 5f70 003f 7a3c a13e bb2a 6e3e 00ff da3d
000001e0: 932a 04be aa92 033d 258e bb3e c632 91be
000001f0: 6a86 303e 0528 44bc d0a2 0e3e 7b4a 88be
00000200: d101 fabd 9a20 e93d 1998 9bba dee5 84bd
00000210: 824f f0bd 1cfa 0e3d 3c33 efbd acd5 efbd
00000220: f60c 7cbc ccb7 813e 83eb 12be edb4 003e
00000230: 56fb 32be 0a87 d7be da4f b53d 526b 3fbd
00000240: 6ce3 e0bd 2966 973d c582 b5bd 1cfa 58be
00000250: 3eaf 043a 02de 8dbd 879f 973e 09a5 8c3e
00000260: 16f2 553e 6e70 533e 2cb0 84bd 92b1 663e
00000270: 3ca5 b93d b83a dcbc d72c dbbd a99b f3bc
00000280: 17ce c6bd b0d2 36bc 93f2 233e 4212 a0bd
00000290: a038 75be f1cc 38be 813d 23bd 29e1 3dbe
000002a0: 4b33 65be ae62 2d3e 762b 89bd 8bd3 c8bd
000002b0: 39fa cf3d cbad 2f3e 1508 b1bd 3d96 e53d
000002c0: 5543 2bbe a34d 283c 8ccc 49be e7d6 c3bd
000002d0: d42e a4be 916b 713e e9f0 bdbd b1f0 57be
000002e0: 96be e13d 28c1 be3d 2623 bdbd 29e7 163e
000002f0: 153a 273e 3036 97bc 9071 00be 12cc 25be
00000300: 0980 8bbc 2cc6 4a3c 92b9 c63d 31c4 77be
00000310: f7bc 903d fc85 353c e8fd bcbd 841e b5be
00000320: ed29 613d d0e5 34be 8561 a4bd 5a85 79be
00000330: 8879 a8bc b106 abbd fc76 013e d3af 0c3e
00000340: 91e1 713e f14f c83b 7e67 1d3c 98aa ff3d
00000350: 125b 283e c59f 50bd 363d 07be ed10 00be
00000360: 3d3c 0c3e 8b3f eabd bf38 30be 45e4 d7bc
00000370: 1b0a 0b3e 4676 383e 597f 3f3e b9f1 933d
00000380: 9b62 94be 4943 05be aa04 4cbe 194a b2be
00000390: 1469 a6bd 592d a43d 1a8e 633d 998d ffbc
000003a0: 3e04 a93c 39c6 213e d35c 033e 31a8 35bd
000003b0: 0de6 af3d 5151 40bc caf3 8c3e 5814 e23c
000003c0: 7616 583e b221 813e 1766 76be 12df f03d
000003d0: 41fa fd3d b3bb e33d 6bed 303d 5257 e03d
000003e0: ccad 20be 9586 dbbd 86e2 363d 0675 30be
000003f0: bc2f 183e d545 e2bc 8960 443e f4c8 6b3d

gru.bias_ih_l0 f4 [192]
-0.0058618453 -0.117066085 -0.3991353 -0.007055585 0.14214665 -0.2854997 0.089373015 -0.4279818
-0.11486298 0.03922452 0.26134717 0.05948274 0.025752686 -0.41002628 -0.27459008 -0.65816265
-0.23278841 -0.05309406 -0.2348327 -0.14955536 -0.5809996 -0.45783314 -0.3226317 -0.55470437
-0.39622137 -0.014858119 -0.10218266 -0.33753994 -0.12406757 -0.58361614 0.23809755 -0.51499844
0.030984288 -0.076956406 -0.5318747 -0.0037500341 0.0140389195 0.051943026 -0.03022044 -0.20915616
-0.39812756 -0.2908575 0.045249376 -0.024705157 -0.017027248 -0.23076439 -0.5892414 -0.009185143
-0.122572936 0.044243235 0.10005016 -0.3942162 0.16892563 -0.6789868 -0.0066368985 -0.029114602
-0.1976293 -0.41132292 -0.18515335 -0.16020918 -0.70760924 0.1194848 -0.3859915 -0.12003039
-0.4474804 0.83127505 -0.43898422 -0.50004035 -0.5371598 -0.113618925 -0.7879848 0.31611657
0.26145324 -0.6766467 -0.61598355 -0.35974407 -0.7035949 0.6097122 0.30175492 0.3992319
0.082149826 0.03170697 0.10531549 1.053364 0.40436694 0.3444228 0.89042205 -0.029930575
0.37962204 -0.4963247 -0.89333624 0.72150266 1.0890268 0.34152544 1.4263315 0.52836204
-0.80615747 -0.8591372 0.35486424 0.4111107 -0.22073746 0.7308654 -0.7734122 -0.40479282
0.48885968 0.7379008 -0.76108086 -0.7618521 0.33184242 -0.029990626 0.34183854 0.9981669
0.3435493 -0.46358156 -0.41398665 0.17130528 0.119251266 0.29184496 -0.16850789 -0.9177699
0.5860412 0.096889734 0.24813752 -0.42536923 0.40580544 -1.0601448 -0.2577926 -0.37251258
0.06345739 0.06965628 -0.0046718633 -0.023283692 -0.07869815 0.03210246 -0.041704703 -0.040945116
0.12082012 0.038943194 0.12738805 -0.026115933 -0.02520793 -0.10008149 0.06322987 0.02735091
-0.10042445 -0.024237461 -0.05431388 -0.12433086 0.15301073 0.025721481 -0.08291531 0.021994224
-0.031612836 -0.06943461 0.038931623 0.06707868 0.010700856 -0.0021969147 0.034966756 0.0181001
-0.05185019 -0.026014892 -0.03733898 -0.07052097 0.023975324 0.15399748 0.030794859 -0.08445069
0.062585056 0.09441971 -0.015643025 -0.081096604 -0.03971043 0.11856502 0.02345536 -0.081793845
0.041611016 0.11986056 0.114661366 0.01007901 0.09741972 -0.03986326 0.025118243 -0.055137005
0.08041168 0.05928291 -0.087724395 0.06207925 -0.015885795 0.0392102 -0.048494823 0.0148217855
00000000: b914 c0bb 58c0 efbd 765b ccbe 8932 e7bb
00000010: e48e 113e 042d 92be 3309 b73d 6e20 dbbe
00000020: 483d ebbd e4a9 203d 4ccf 853e 2ca4 733d
00000030: 4cf7 d23c f7ee d1be 1297 8cbe 597d 28bf
00000040: 1660 6ebe 2879 59bd fc77 70be 0a25 19be
00000050: 64bc 14bf 1b69 eabe fb2f a5be 1b01 0ebf
00000060: 87dd cabe 786f 73bc 2445 d1bd 09d2 acbe
00000070: 2317 febd de67 15bf d8cf 733e f0d6 03bf
00000080: c3d2 fd3c 529b 9dbd f128 08bf 22c3 75bb
00000090: 7f03 663c 36c2 543d db90 f7bc 082d 56be
000000a0: 60d7 cbbe 46eb 94be 6957 393d 7862 cabc
000000b0: ba7c 8bbc 804d 6cbe 86d8 16bf 487d 16bc
000000c0: 8507 fbbd 6538 353d 19e7 cc3d b5d6 c9be
000000d0: d7fa 2c3e 14d2 2dbf 577a d9bb bf81 eebc
000000e0: 565f 4abe eb98 d2be d798 3dbe e00d 24be
000000f0: e125 35bf 72b4 f43d aea0 c5be 7ed2 f5bd
00000100: 271c e5be 71ce 543f 8ac2 e0be a502 00bf
00000110: 4e83 09bf 0ab1 e8bd 5fb9 49bf 08da a13e
00000120: 33dd 853e b838 2dbf 19b1 1dbf 6030 b8be
00000130: cc1e 34bf 1916 1c3f 9f7f 9a3e 2068 cc3e
00000140: 2b3e a83d 2bdf 013d a6af d73d a2d4 863f
00000150: 2f09 cf3e 2f58 b03e b3f2 633f f730 f5bc
00000160: d25d c23e 451e febe afb1 64bf 66b4 383f
00000170: 3b65 8b3f 6cdc ae3e 0892 b63f bc42 073f
00000180: 5660 4ebf 6af0 5bbf c4b0 b53e 1a7d d23e
00000190: 0009 62be ff19 3b3f 58fe 45bf 0141 cfbe
000001a0: d14b fa3e 11e7 3c3f 32d6 42bf bd08 43bf
000001b0: 40e7 a93e e7ae f5bc 7605 af3e de87 7f3f
000001c0: b2e5 af3e 905a edbe 0ff6 d3be a76a 2f3e
000001d0: 023a f43d b46c 953e 558d 2cbe f8f2 6abf
000001e0: cc06 163f 206e c63d c317 7e3e ffc9 d9be
000001f0: bbc5 cf3e d3b2 87bf 64fd 83be f8b9 bebe
00000200: f3f5 813d f4a7 8e3d 6e16 99bb 71bd bebc
00000210: 7f2c a1bd de7d 033d 8dd2 2abd 11b6 27bd
00000220: 8a70 f73d e682 1f3d 0372 023e 15f1 d5bc
00000230: dc80 cebc 86f7 ccbd a97e 813d 040f e03c
00000240: 56ab cdbd a48d c6bc 3b78 5ebd 2ea1 febd
00000250: d8ae 1c3e dbb5 d23c 81cf a9bd 3b2d b43c
00000260: 767c 01bd bc33 8ebd c476 1f3d 8c60 893d
00000270: a552 2f3c 1dfa 0fbb 4d39 0f3d a946 943c
00000280: dd60 54bd 2f1d d5bc c2f0 18bd 4c6d 90bd
00000290: e667 c43c 84b1 1d3e 8045 fc3c 7cf4 acbd
000002a0: 982c 803d 1f5f c13d cd25 80bc fa15 a6bd
000002b0: 67a7 22bd 38d2 f23d 7525 c03c 8883 a7bd
000002c0: 5070 2a3d 7479 f53d 94d3 ea3d 6f22 253c
000002d0: fd83 c73d a847 23bd c6c4 cd3c 57d7 61bd
000002e0: e1ae a43d a3d2 723d d9a8 b3bd d046 7e3d
000002f0: ed22 82bc e09a 203d 82a2 46bd 13d7 723c

gru.bias_hh_l0 f4 [192]
0.020041008 -0.0047184317 -0.4635075 -0.15577422 0.11936171 -0.083655275 0.15587032 -0.31906053
-0.12431548 0.114360936 0.26073965 -0.04521826 0.05831974 -0.4000371 -0.28294438 -0.6111349
-0.43524814 -0.08549318 -0.2996685 -0.027335629 -0.6306098 -0.4887002 -0.3612545 -0.48066944
-0.19712985 -0.089027695 -0.0656558 -0.30794072 -0.32002547 -0.4339455 0.2407746 -0.5341259
0.107159205 -0.06500292 -0.52068394 0.1112963 0.0342626 -0.12835525 0.014111872 -0.16768278
-0.62840897 -0.24010366 0.16089943 0.083320305 -0.04908387 -0.13819936 -0.58800924 -0.031645924
-0.31187525 0.032193396 -0.00967612 -0.5143585 0.14090478 -0.6717095 0.05119374 -0.0005772735
-0.30299038 -0.27986634 -0.28367156 -0.12698124 -0.6842549 -0.04066918 -0.3612057 -0.24954298
-0.65680766 0.80933535 -0.3598308 -0.5451794 -0.69570374 -0.1779056 -0.78350085 0.29517138
0.33420053 -0.78686655 -0.56946015 -0.43994257 -0.6991937 0.6402232 0.20979193 0.3497847
0.13548118 0.09652011 0.16407591 1.1438909 0.49039724 0.34001243 0.8468889 0.032222643
0.56596947 -0.3860264 -0.9096845 0.95639807 1.0157279 0.20908017 1.4424917 0.6060094
-0.7104606 -0.7362272 0.29097012 0.36157262 -0.40579054 0.7269517 -0.7465342 -0.30795193
0.43684408 0.88989544 -0.69849753 -0.7659103 0.20890372 0.18082623 0.33012673 0.9542826
0.27845952 -0.29387763 -0.46331373 0.23857053 0.08068151 0.21901368 -0.22060579 -0.9054413
0.5914696 0.09775704 0.2084439 -0.30988023 0.25338626 -0.96054167 -0.18960722 -0.33714893
-0.07217022 0.0021116475 -0.023212202 0.0031719832 0.049550105 -0.029449351 0.03596452 0.01260983
-0.016573437 -0.09987909 -0.13303682 -0.014029698 -0.05875377 -0.025497993 -0.05783083 0.031348404
0.116541214 -0.029909972 0.15910305 0.05752994 0.026425604 -0.06529923 -0.1615904 -0.07207833
0.15522842 0.024823984 -0.07921043 0.073839486 -0.051381584 0.080964796 0.13672827 -0.018239876
0.14545977 -0.011277063 -0.007448608 -0.050192263 -0.053014643 0.0154583 -0.045102585 0.049114797
-0.04946169 0.042187933 0.030020036 0.09313703 -0.059803385 -0.08099729 -0.05513039 0.09192964
0.034976095 -0.12786828 0.006952387 0.0408158 -0.16580006 0.0659908 -0.05867587 0.041048937
-0.052459586 -0.068966106 0.024503613 0.0115057975 0.10648824 0.0664491 0.07888189 -0.033450022
00000000: 0a2d a43c 139d 9abb db50 edbe 4783 1fbe
00000010: ea73 f43d 7553 abbd 789c 1f3e e75b a3be
00000020: 1d99 febd 1136 ea3d ab7f 853e c836 39bd
00000030: aee0 6e3d aad1 ccbe 16de 90be 5673 1cbf
00000040: d8d8 debe 0c17 afbd 266e 99be f8ee dfbc
00000050: a56f 21bf ea36 fabe 5af6 b8be 4e1a f6be
00000060: 68dc 49be 2754 b6bd 8c76 86bd 68aa 9dbe
00000070: 61da a3be 1b2e debe 9e8d 763e 7abc 08bf
00000080: 4976 db3d 4020 85bd 8b4b 05bf 51ef e33d
00000090: f156 0c3d 8f6f 03be 7b35 673c 09b5 2bbe
000000a0: 69df 20bf bcdd 75be d2c2 243e d6a3 aa3d
000000b0: 2b0c 49bd 2284 0dbe c687 16bf 289f 01bd
000000c0: 1dae 9fbe 39dd 033d 9788 1ebc 00ad 03bf
000000d0: 5849 103e 27f5 2bbf 87b0 513d 2b54 17ba
000000e0: 8e21 9bbe a44a 8fbe 663d 91be 5f07 02be
000000f0: 542b 2fbf ba94 26bd f4ef b8be 3288 7fbe
00000100: 8c24 28bf 9a30 4f3f be3b b8be e190 0bbf
00000110: a419 32bf e32c 36be 8393 48bf b420 973e
00000120: 551c ab3e 1670 49bf 24c8 11bf 2740 e1be
00000130: 5cfe 32bf abe5 233f b2d3 563e fb16 b33e
00000140: 94bb 0a3e 56ac c53d 8403 283e 046b 923f
00000150: 5915 fb3e 1c16 ae3e b6cd 583f e4fb 033d
00000160: 60e3 103f 41a5 c5be 15e1 68bf 81d6 743f
00000170: 5f03 823f 1d19 563e 91a3 b83f 6f23 1b3f
00000180: bfe0 35bf 6379 3cbf 09fa 943e 0c20 b93e
00000190: c7c3 cfbe 8219 3a3f de1c 3fbf e0ab 9dbe
000001a0: 07aa df3e 30d0 633f bcd0 32bf b312 44bf
000001b0: dbea 553e 832a 393e 5f06 a93e dd4b 743f
000001c0: 3f92 8e3e 2177 96be 7537 edbe d54b 743e
000001d0: 593c a53d 1f45 603e 7ce6 61be 00cb 67bf
000001e0: 8d6a 173f d834 c83d 5172 553e 9fa8 9ebe
000001f0: d8bb 813e 0fe6 75bf 6528 42be c99e acbe
00000200: fbcd 93bd 9163 0a3b 8427 bebc 0ce1 4f3b
00000210: 0df5 4a3d c43f f1bc 884f 133d 7699 4e3c
00000220: 04c5 87bc 698d ccbd ce3a 08be d2dc 65bc
00000230: cba7 70bd 2be1 d0bc 05e0 6cbd 2f67 003d
00000240: 29ad ee3d c205 f5bc e9eb 223e 84a4 6b3d
00000250: 827a d83c 9abb 85bd f477 25be ce9d 93bd
00000260: 33f4 1e3e ab5b cb3c 1439 a2bd 2839 973d
00000270: 7f75 52bd dfd0 a53d 7f02 0c3e cb6b 95bc
00000280: 68f3 143e 6ec3 38bc 7413 f4bb 6796 4dbd
00000290: e225 59bd cf44 7d3c 7dbd 38bd 992c 493d
000002a0: 5798 4abd 41cd 2c3d 94ec f53c a1be be3d
000002b0: 65f4 74bd e8e1 a5bd 67d0 61bd 9b45 bc3d
000002c0: 1843 0f3d e7ef 02be d9d0 e33b 782e 273d
000002d0: 7ec7 29be 2f26 873d 1c56 70bd ee22 283d
000002e0: dddf 56bd 1a3e 8dbd cdbb c83c d082 3c3c
000002f0: 8216 da3d 7716 883d d48c a13d e402 09bd

gru.weight_ih_l1 f4 [192, 64]
-0.08365721 -0.18877052 0.14587061 -0.11728402 -0.3352812 -0.1206997 0.04389831 0.19566159
-0.33971363 -0.34482446 0.08330736 0.21851933 -0.03967339 -0.19071162 -0.05026202 0.058069203
-0.02071336 0.7970629 -0.4910641 -0.059432235 -0.40612918 0.07766092 -0.121047966 -0.13824366
0.17515932 0.07510628 -0.16495706 0.41189662 0.59734756 0.014481746 0.13036053 -0.58919734
0.016609913 -0.3688217 0.10977824 -0.63477254 -0.2576762 0.046752896 0.18052718 -0.23701999
-0.11621999 -0.019004274 -0.04697175 -0.081760876 -0.6231449 -0.040828194 -0.07418145 -0.31881535
0.17947213 0.5749496 -0.13278411 0.04173721 -0.1697097 -0.026452573 0.13275768 -0.3360465
0.22957316 0.087583646 -0.07467874 0.47998092 0.07090036 0.27289066 0.16807935 -0.22706938
-0.5084675 -0.0836932 0.32779104 -0.23611523 -0.28473616 0.014071314 -0.27835047 0.041468505
-0.4964355 -0.14044133 -0.114230834 -0.15900692 -0.27260226 -0.24545586 -0.10891326 0.1152935
-0.001540239 0.09114239 -0.3052401 -0.09602796 -0.5065212 0.15802659 0.29703915 -0.16849764
0.14949884 -0.16395767 -0.39094988 0.073786125 0.18654145 0.0122643905 0.07027063 -0.054729152
-0.504891 -0.41489884 0.07157423 0.020508979 -0.49449882 -0.054703783 0.29472995 0.11259188
-0.035525404 -0.058602303 -0.4830724 -0.52510124 -0.0841081 0.0029525114 -0.09983189 0.2026467
-0.035980523 -0.6665398 -0.018497128 0.014379941 -0.5800452 0.058765355 -0.13720481 -0.3141966
0.16348052 0.04540102 -0.049104955 -0.14493166 0.15500173 0.07310638 -0.05039223 -0.20273298
0.48941118 -0.06629908 0.22892393 -0.23098385 0.18263336 0.3256746 0.023359036 0.42685658
0.90211004 0.15074234 0.40582904 -0.3191202 -0.44937384 0.5273579 -0.5231908 0.090637885
-0.0060073603 -0.06502421 -0.029491648 -0.12264887 0.4280529 0.23498991 0.06584556 0.08349168
-0.27638578 -0.31192195 -0.04821757 0.52620023 -0.08162738 -0.43176937 -0.015685977 -0.14590012
0.30376184 -0.10380505 0.3380351 0.07395333 -0.23059379 -0.33396745 0.07295658 0.023229944
0.05164591 -0.17312637 -0.2092308 -0.12058691 -0.17464368 0.29625618 -0.3068768 0.093394056
-0.9015626 -0.4184516 -0.029973129 -0.81220824 0.52663714 -0.24151547 -0.34165978 -0.1433883
-0.26705155 0.55074424 -0.19154003 0.46940085 -0.121721365 -0.35077083 -0.7801873 0.056052003
0.024026418 -0.91634697 -0.5358529 -0.685285 -0.103063904 -0.26100078 -0.15652546 -0.18257506
0.18658864 -0.07530974 0.5807173 -0.8636817 -0.9547624 0.2193948 -0.16736914 -0.43361187
0.35057816 -0.41629332 0.3136101 -1.2382852 0.023673955 -0.3168208 0.2321752 -0.3554996
-0.8450311 -0.6323104 -0.59331137 0.3030793 -0.83454835 0.12320255 -0.85805357 0.728303
0.14376435 -0.47403732 -0.5672747 0.05780872 -0.44166592 -0.9704551 -0.2005404 0.2808398
-0.27854007 0.49367377 -0.20394547 -0.10246374 0.17426732 -0.7283735 0.22964162 0.8645107
0.36039013 0.103336655 0.03128747 0.08365455 0.3881788 0.20650086 -0.4128243 -0.13354068
-0.7257677 -0.3786742 0.37022358 0.10446347 0.15208009 0.30154717 0.1719039 -0.33259344
00000000: 7954 abbd 0f4d 41be 1b5f 153e 9b32 f0bd
00000010: faa9 abbe 6831 f7bd b7ce 333d 835b 483e
00000020: f2ee adbe d58c b0be 0d9d aa3d 88c3 5f3e
00000030: 9180 22bd e849 43be 8cdf 4dbd f9d9 6d3d
00000040: 10af a9bc 500c 4c3f c16c fbbe 376f 73bd
00000050: 2af0 cfbe b00c 9f3d ffe7 f7bd bf8f 0dbe
00000060: f75c 333e 52d1 993d 81ea 28be 1de4 d23e
00000070: c5eb 183f d844 6d3c 3b7d 053e a3d5 16bf
00000080: 8311 883c 33d6 bcbe 6ad3 e03d 7480 22bf
00000090: 23ee 83be f77f 3f3d 1edc 383e 5eb5 72be
000000a0: bf04 eebd daae 9bbc 7365 40bd 3f72 a7bd
000000b0: 6d86 1fbf 773b 27bd 72ec 97bd c43b a3be
000000c0: 8bc7 373e e62f 133f 8ff8 07be a3f4 2a3d
000000d0: 61c8 2dbe 11b3 d8bc a1f1 073e 490e acbe
000000e0: 3a15 6b3e 0e5f b33d 2bf1 98bd 0fc0 f53e
000000f0: 3534 913d 53b8 8b3e fe1c 2c3e e084 68be
00000100: ed2a 02bf 5767 abbd 3ad4 a73e 31c8 71be
00000110: f0c8 91be 5e8b 663c f483 8ebe e1da 293d
00000120: cb2c febe dacf 0fbe dbf1 e9bd b6d2 22be
00000130: 8692 8bbe c858 7bbe ea0d dfbd 001f ec3d
00000140: d8e1 c9ba dda8 ba3d 6e48 9cbe 4faa c4bd
00000150: 60ab 01bf b9d1 213e 8415 983e a58a 2cbe
00000160: 3916 193e 85e4 27be 952a c8be 2e1d 973d
00000170: b904 3f3e 95f0 483c 0cea 8f3d ad2b 60bd
00000180: 8940 01bf 9f6d d4be 8395 923d 7202 a83c
00000190: f32e fdbe 1311 60bd d8e6 963e 9296 e63d
000001a0: 1683 11bd f808 70bd 4455 f7be 096d 06bf
000001b0: de40 acbd ec7e 413b a974 ccbd 9e82 4f3e
000001c0: 5060 13bd 5aa2 2abf 4a87 97bc d899 6b3c
000001d0: d87d 14bf f1b3 703d 6b7f 0cbe 60de a0be
000001e0: 7067 273e 6cf6 393d 4722 49bd f768 14be
000001f0: c6b8 1e3e ccb8 953d 1568 4ebd 3c99 4fbe
00000200: 1a94 fa3e d0c7 87bd 096b 6a3e 0887 6cbe
00000210: 3d04 3b3e d2be a63e 735b bf3c f28c da3e
00000220: aff0 663f 335c 1a3e d3c8 cf3e b963 a3be
00000230: 5414 e6be ed00 073f d5ef 05bf 5ba0 b93d
00000240: 64d9 c4bb 6a2b 85bd 7898 f1bc 552f fbbd
00000250: c029 db3e 32a1 703e 09da 863d b0fd aa3d
00000260: 7082 8dbe 3cb4 9fbe c97f 45bd 0fb5 063f
00000270: 412c a7bd e010 ddbe e17f 80bc d766 15be
00000280: ac86 9b3e be97 d4bd f012 ad3e d874 973d
00000290: c720 6cbe c8fd aabe 426a 953d b94c be3c
000002a0: a98a 533d 0a48 31be 9940 56be 45f6 f6bd
000002b0: cbd5 32be e4ae 973e f51e 9dbe 6245 bf3d
000002c0: cecc 66bf 4a3f d6be 358a f5bc e1ec 4fbf
000002d0: b1d1 063f d54f 77be 08ee aebe 62d4 12be
000002e0: fbba 88be 93fd 0c3f 1223 44be 4f55 f03e
000002f0: 0d49 f9bd 3c98 b3be 5bba 47bf c996 653d
00000300: 0dd3 c43c b795 6abf a82d 09bf d66e 2fbf
00000310: 2b13 d3bd e5a1 85be 3648 20be f5f4 3abe
00000320: 1811 3f3e fe3b 9abd e4a9 143f 3e1a 5dbf
00000330: 4f6b 74bf 08a9 603e d162 2bbe 6002 debe
00000340: fb7e b33e 6624 d5be 8191 a03e 2180 9ebf
00000350: e2ef c13c 5636 a2be 56bf 6d3e 0b04 b6be
00000360: f553 58bf 18df 21bf 41e3 17bf 362d 9b3e
00000370: f6a4 55bf 9e51 fc3d 66a9 5bbf 1172 3a3f
00000380: f636 133e 05b5 f2be ea38 11bf d6c8 6c3d
00000390: 0922 e2be bf6f 78bf 765a 4dbe 3cca 8f3e
000003a0: ce9c 8ebe cfc2 fc3e 15d7 50be 82d8 d1bd
000003b0: 2273 323e b076 3abf 2c27 6b3e 9350 5d3f
000003c0: 0e85 b83e 2ba2 d33d 4a27 003d 1453 ab3d
000003d0: 5fbf c63e f674 533e b55d d3be e3be 08be
000003e0: e9cb 39bf 96e1 c1be f28d bd3e f2f0 d53d
000003f0: e2ba 1b3e 6464 9a3e 9307 303e b049 aabe

gru.weight_hh_l1 f4 [192, 64]
0.04255555 0.42502403 -0.2863997 -0.059620436 0.33681685 0.09229126 0.1308636 -0.06702036
-0.22270669 0.2557542 -0.21619289 0.38845718 0.09339287 0.18396592 -0.040165626 -0.24548422
0.16960394 -0.5171293 0.29612175 -0.12347729 0.10720645 -0.17602755 0.58262074 -0.046462484
-0.31601086 -0.09316814 0.015875926 0.11334478 0.047859382 0.023620307 0.02260032 0.016200604
0.10986004 -0.14199126 0.4618427 0.14173862 -0.19343539 -0.20705411 -0.29249254 0.23048608
0.3482226 0.13652015 0.06035919 0.12889872 -0.20803773 -0.19441901 -0.16222063 -0.022797411
0.124427505 -0.37326193 0.03541698 -0.20945208 -0.58774775 0.21512328 -0.28285265 0.069109514
0.4231127 0.21393223 -0.18775578 0.30797917 0.11226413 0.33369353 -0.07503692 0.54340875
0.15849277 0.22286513 0.0648298 -0.23114477 0.070486926 -0.20895989 0.4608799 0.31662533
0.3303589 0.012273106 -0.31055793 -0.10326654 -0.15721005 0.5590826 0.0507842 0.4237651
-0.23174515 -0.34741214 0.41056466 -0.24060814 0.17604464 -0.031186936 -0.4764747 -0.2754657
-0.014476406 -0.12236415 -0.48859394 0.24178001 0.26438984 -0.22195728 0.15533812 -0.09120211
-0.12937361 0.2696991 0.34852988 -0.04021881 0.08052704 0.1036617 0.6042041 -0.2441231
-0.027693735 0.8849947 -0.11659412 0.098539926 -0.1907439 0.06821584 0.28231087 -0.12984991
-0.010259251 -0.7228464 -0.135628 -0.387365 -0.0946948 0.022288084 0.28195328 -0.17613727
0.1409632 0.21273194 -0.025720121 -0.049634803 0.29186493 -0.01555549 -0.10239462 -0.31994417
-0.20077363 0.030455232 0.056981016 -0.040021192 -0.2566602 0.07509891 0.13990739 -0.20549387
-0.30676597 0.22455004 -0.72159654 0.27841842 -0.12558597 -0.15522034 -0.11768394 -0.19206627
-0.0988981 0.013685124 -0.009835698 -0.9768586 0.267379 0.41199845 -0.27149343 -0.13534574
-0.3898331 0.21057105 -0.02291822 -0.35206982 0.18260162 -0.19044478 0.07016092 -0.12602736
0.5180647 0.1400137 -0.14751263 0.11901595 -0.2316439 -0.14258704 0.056121532 0.42110357
0.38104144 0.26640823 -0.18211196 0.19481373 -0.3624226 -0.3354648 -0.20103033 0.062495768
0.00984575 0.17981572 -0.07020866 -0.055546388 0.11541693 -0.046294346 0.22597057 -0.039701004
-0.12899525 -0.28919575 0.15457883 0.09705602 -0.17929766 0.047960307 0.050710358 -0.08791486
-0.043683354 0.13538232 -0.09312161 0.9639318 0.087680474 0.016417809 0.23314546 0.0030274407
0.78054327 0.11982902 -0.33428094 0.18576212 -0.5209946 0.2811031 0.41260493 0.13041571
-0.9468669 -0.33491373 0.13258377 -0.81931794 0.10253953 -0.57728344 0.47082245 -0.20797835
0.17408305 0.14654283 -0.02917128 0.16888015 0.14235868 -0.39477333 0.12402478 0.11965728
0.049681682 -0.18847868 -0.44190544 0.24542768 -0.11931378 -0.06456274 -0.12313257 -0.032544922
0.06353259 0.28177825 0.29994124 0.28076565 -0.27464846 0.105413415 0.12865028 -0.1635806
-0.32851428 -0.64662194 -0.114938445 -0.21592171 -0.10250411 -0.27479896 -0.38686293 -0.2101058
0.38947248 0.05806895 0.012346121 -0.1911685 0.010039084 -0.17067717 0.004892259 -0.14888687
00000000: ba4e 2e3d c09c d93e fba2 92be 8f34 74bd
00000010: 4273 ac3e 3303 bd3d 1c01 063e f841 89bd
00000020: 390d 64be 37f2 823e ab61 5dbe dce3 c63e
00000030: c344 bf3d 9061 3c3e b684 24bd 3760 7bbe
00000040: a8ac 2d3e 9662 04bf 459d 973e a9e1 fcbd
00000050: 0e8f db3d 9140 34be a226 153f 724f 3ebd
00000060: 2dcc a1be f0ce bebd 3b0e 823c 4f21 e83d
00000070: 3308 443d 607f c13c 4e24 b93c 21b7 843c
00000080: 4dfe e03d 2866 11be a576 ec3e ee23 113e
00000090: ed13 46be fe05 54be 95c1 95be 8b04 6c3e
000000a0: 3c4a b23e f0cb 0b3e 333b 773d 07fe 033e
000000b0: d807 55be c715 47be 2a1d 26be a3c1 babc
000000c0: d9d3 fe3d 301c bfbe 6511 113d 9b7a 56be
000000d0: a376 16bf 4749 5c3e 10d2 90be 4a89 8d3d
000000e0: 3aa2 d83e 0d11 5b3e 0d43 40be 72af 9d3e
000000f0: bcea e53d e1d9 aa3e f5ac 99bd d61c 0b3f
00000100: ee4b 223e c236 643e 7cc5 843d 37b1 6cbe
00000110: 735b 903d 95f9 55be 73f8 eb3e b71c a23e
00000120: cd24 a93e 2315 493c 7301 9fbe 687d d3bd
00000130: acfb 20be 0a20 0f3f 1803 503d bdf7 d83e
00000140: 9a4e 6dbe 01e0 b1be 8835 d23e fb61 76be
00000150: 0c45 343e bf7b ffbc 7ef4 f3be d709 8dbe
00000160: 732e 6dbc 0e9a fabd fc28 fabe 2e95 773e
00000170: 1b5e 873e c548 63be f510 1f3e 2cc8 babd
00000180: 847a 04be 0016 8a3e 8272 b23e 7bbc 24bd
00000190: 5ceb a43d 964c d43d 1fad 1a3f 68fb 79be
000001a0: f9dd e2bc 038f 623f e6c8 eebd 4dcf c93d
000001b0: 5e52 43be bfb4 8b3d 0d8b 903e 60f7 04be
000001c0: 6b16 28bc 760c 39bf 11e2 0abe b554 c6be
000001d0: 59ef c1bd 8095 b63c 2e5c 903e 545d 34be
000001e0: a858 103e 67d6 593e 01b3 d2bc dd4d 4bbd
000001f0: 526f 953e 74dc 7ebc 45b4 d1bd b9cf a3be
00000200: 9a97 4dbe 407d f93c ed64 693d 43ed 23bd
00000210: f768 83be 75cd 993d e243 0f3e fc6c 52be
00000220: 6e10 9dbe 72f0 653e 8dba 38bf dc8c 8e3e
00000230: 9c99 00be 15f2 1ebe 4704 f1bd 05ad 44be
00000240: 168b cabd 9237 603c e825 21bc 6813 7abf
00000250: e6e5 883e 76f1 d23e 3001 8bbe 1398 0abe
00000260: 3498 c7be f09f 573e febe bbbc 7f42 b4be
00000270: ebfb 3a3e f503 43be 87b0 8f3d 510d 01be
00000280: e39f 043f c05f 0f3e 8d0d 17be a2be f33d
00000290: 0f34 6dbe 5602 12be b1df 653d e39a d73e
000002a0: dd17 c33e a966 883e 8f7b 3abe 407d 473e
000002b0: 748f b9be 0bc2 abbe e5da 4dbe 90fb 7f3d
000002c0: 1250 213c 9d21 383e 8fc9 8fbd 9c84 63bd
000002d0: b65f ec3d 249f 3dbd d464 673e 859d 22bd
000002e0: 5517 04be 7711 94be ea49 1e3e 4ec5 c63d
000002f0: ce99 37be 0772 443d aab5 4f3d b50c b4bd
00000300: 51ed 32bd aaa1 0a3e 8bb6 bebd 3cc4 763f
00000310: d291 b33d a47e 863c afbd 6e3e 0768 463b
00000320: afd1 473f eb68 f53d df26 abbe 6d38 3e3e
00000330: e75f 05bf bfec 8f3e f440 d33e b28b 053e
00000340: df65 72bf d079 abbe 0ac4 073e d2be 51bf
00000350: 3f00 d23d d9c8 13bf a40f f13e 47f8 54be
00000360: d442 323e 530f 163e 9cf8 eebc ebee 2c3e
00000370: 79c6 113e bb1f cabe b400 fe3d e00e f53d
00000380: 057f 4b3d 8e00 41be 6e41 e2be 6551 7b3e
00000390: c85a f4bd 7839 84bd ee2c fcbd d34d 05bd
000003a0: 601d 823d 3d45 903e e691 993e 84c0 8f3e
000003b0: b99e 8cbe fde2 d73d e6bc 033e ac81 27be
000003c0: 0633 a8be 0489 25bf d964 ebbd 951a 5dbe
000003d0: aded d1bd 73b2 8cbe e612 c6be fa25 57be
000003e0: f068 c73e b5d9 6d3d 6247 4a3c adc1 43be
000003f0: f87a 243c ffc5 2ebe 3e4f a03b cd75 18be

gru.bias_ih_l1 f4 [192]
0.07377701 -0.21121287 -0.26809895 0.08515532 0.22674792 -0.15808624 -0.037338387 -0.17807737
0.010914443 -0.097503416 0.28342125 0.26958102 -0.11709783 0.26647845 0.10684219 -0.09342768
-0.08864688 0.0025811305 -0.22428533 -0.0102790035 -0.08813217 0.12688419 -0.04812252 0.27191016
0.1059138 0.11707204 -0.14103587 0.04979976 0.10771521 0.033922754 0.19290991 0.0043440806
0.48818904 0.17557482 0.037019275 -0.108932234 0.19957685 -0.08651876 0.14670199 -0.08055403
0.002145496 0.09487808 -0.05293388 -0.017830376 -0.0662406 -0.25181246 -0.15013352 -0.07026194
-0.3252806 -0.10973562 0.17475334 0.074872285 0.21153648 0.043909185 0.03763633 0.005638043
0.06014544 -0.21295267 -0.33821872 -0.11922563 0.19885205 -0.08853798 -0.30164745 -0.061056886
-0.012022875 0.32569662 -0.045500237 0.58122057 0.05000016 0.10889007 0.36891204 0.02329922
0.047360945 0.14231941 0.029947633 -0.1344356 0.13393171 0.21338806 -0.012742108 0.25845894
-0.131612 -0.04226128 0.2476536 -0.07024069 -0.026943358 -0.113158956 0.728368 0.21405727
0.29417306 0.07778136 0.24099599 0.20675352 1.0534616 0.29526168 0.5425657 0.36714217
0.7448694 0.34001833 0.6819215 0.17237331 0.32028311 0.49057955 0.45913914 0.2166334
0.20642333 0.13560192 0.42349666 0.50688666 0.61314076 -0.33184525 0.38881084 0.15906157
0.5131848 0.20663957 0.33334807 -0.13404745 -0.09460816 0.18049382 0.7076885 0.6100214
0.4225224 0.020272836 0.16945398 0.23148666 0.3806746 0.08324716 0.42732662 0.0884178
-0.007913479 -0.0518618 -0.22140461 0.028464409 -0.40834424 -0.04056771 -0.0027117336 -0.17600696
0.13844386 0.21952543 -0.11610765 -0.11484313 0.07440321 -0.13899037 0.17871019 0.061197165
0.008605528 -0.30496225 -0.123901375 0.061595533 0.045076586 -0.2728557 0.039045528 -0.1416031
-0.16287313 0.05827478 -0.04499796 -0.02449378 0.12419987 0.036920156 0.19908266 0.3225718
0.16490717 0.2668245 0.115344405 -0.30519953 0.1734031 -0.011144142 0.06801537 0.25138584
-0.02761909 0.1402635 0.03434475 0.09365468 -0.003227018 -0.066967726 0.31267816 0.15909663
-0.044390872 -0.06888911 -0.036641225 0.23658857 0.25124407 0.04338063 0.01912684 -0.09711318
-0.10805754 0.1782544 0.053538773 0.10125696 0.13544399 0.3906346 -0.05660199 0.040602345
00000000: 6718 973d 3048 58be 4444 89be ea65 ae3d
00000010: 9b30 683e 5ce1 21be 23f0 18bd ea59 36be
00000020: 7ed2 323c dfaf c7bd 971c 913e 8606 8a3e
00000030: fdd0 efbd dd6f 883e 14d0 da3d 0357 bfbd
00000040: 7f8c b5bd 2f28 293b 0eab 65be 4469 28bc
00000050: a47e b4bd eeed 013e 1f1c 45bd cf37 8b3e
00000060: 56e9 d83d 77c3 ef3d b56b 10be d5fa 4b3d
00000070: cb99 dc3d 96f2 0a3d 2d8a 453e ca58 8e3b
00000080: eaf3 f93e e3c9 333e 86a1 173d dd17 dfbd
00000090: e05d 4c3e bf30 b1bd 0c39 163e 83f9 a4bd
000000a0: 739b 0c3b 704f c23d 32d1 58bd 0211 92bc
000000b0: 27a9 87bd 90ed 80be 9abc 19be 7ee5 8fbd
000000c0: 2e8b a6be 12bd e0bd 8af2 323e a456 993d
000000d0: 059d 583e 1eda 333d 8d28 1a3d 55bf b83b
000000e0: 115b 763d 4410 5abe 012b adbe 912c f4bd
000000f0: df9f 4b3e 6753 b5bd 8971 9abe c916 7abd
00000100: 98fb 44bc b5c1 a63e 755e 3abd dfca 143f
00000110: f8cc 4c3d c201 df3d 0ae2 bc3e 01de be3c
00000120: 8dfd 413d 2ebc 113e bd54 f53c 7ca9 09be
00000130: 6525 093e 6682 5a3e 46c4 50bc bb54 843e
00000140: 4cc5 06be 2a1a 2dbd e898 7d3e 5ada 8fbd
00000150: 51b8 dcbc e2bf e7bd 5376 3a3f d431 5b3e
00000160: da9d 963e d54b 9f3d a7c7 763e 32b7 533e
00000170: d4d7 863f 8a2c 973e 96e5 0a3f 0ffa bb3e
00000180: c3af 3e3f e216 ae3e 6892 2e3f a182 303e
00000190: 26fc a33e 3e2d fb3e 4914 eb3e 25d5 5d3e
000001a0: a360 533e 3bdb 0a3e 8ed4 d83e 53c3 013f
000001b0: cbf6 1c3f 9fe7 a9be 3712 c73e 09e1 223e
000001c0: 1460 033f 5399 533e 99ac aa3e bc43 09be
000001d0: ecc1 c1bd 5fd3 383e 132b 353f 5d2a 1c3f
000001e0: db54 d83e 3813 a63c 5885 2d3e d70a 6d3e
000001f0: c8e7 c23e 7d7d aa3d 8eca da3e 6414 b53d
00000200: 89a7 01bc 0a6d 54bd e4b7 62be 312e e93c
00000210: 7f12 d1be 542a 26bd 57b7 31bb 2b3b 34be
00000220: 3ac4 0d3e 46cb 603e d9c9 edbd e032 ebbd
00000230: b660 983d 7e53 0ebe ceff 363e e1a9 7a3d
00000240: 33fe 0c3c 0324 9cbe 01c0 fdbd 994b 7c3d
00000250: 3aa2 383d beb3 8bbe 34ee 1f3d 6700 11be
00000260: 37c8 26be 89b1 6e3d c84f 38bd 2ea7 c8bc
00000270: 805c fe3d 9739 173d 53dc 4b3e 2228 a53e
00000280: 6ddd 283e 399d 883e b039 ec3d 1d43 9cbe
00000290: 9590 313e eb95 36bc a44b 8b3d a5b5 803e
000002a0: 6e41 e2bc 3ca1 0f3e 15ad 0c3d 06ce bf3d
000002b0: 617c 53bb 6026 89bd 5a17 a03e 3aea 223e
000002c0: 34d3 35bd bc15 8dbd 1c15 16bd 4644 723e
000002d0: 10a3 803e e3af 313d e4af 9c3c 46e3 c6bd
000002e0: 464d ddbd 5288 363e 794b 5b3d cf5f cf3d
000002f0: d4b1 0a3e 4201 c83e 7dd7 67bd a54e 263d

gru.bias_hh_l1 f4 [192]
0.10361722 -0.12449275 -0.084310144 0.09499158 0.1715469 -0.19974439 0.0058292774 -0.002820303
-0.17059286 -0.16740443 0.36817968 0.16459595 -0.057790894 0.26009914 0.10724296 -0.0565562
0.013415145 -0.033404294 -0.2402485 0.06757289 -0.035612345 0.03537309 -0.0930713 0.26929346
0.032457206 -0.06523694 0.008222816 0.05141023 0.23175633 -0.055534367 0.2201277 -0.111137226
0.3319058 0.051116742 0.011894286 -0.09101365 0.08322754 0.13593167 0.07393389 -0.082250476
0.035268027 0.16618794 -0.048182946 -0.035675455 -0.070774466 -0.08169277 -0.06846392 -0.052778896
-0.3205172 0.051544737 0.059361033 -0.11771919 0.2553597 0.0064277337 -0.09025763 0.0100217555
0.17345381 -0.115094185 -0.35443306 -0.08706781 0.34258917 -0.0025911643 -0.2994922 0.059845075
0.22143565 0.13014515 0.099581465 0.75313437 0.07228907 0.26659933 0.229941 -0.050109807
0.26272988 0.18664569 0.05579003 -0.27154055 0.21215923 0.19725735 0.04227937 0.43017128
-0.07086428 -0.04137904 0.37434658 -0.023781143 0.13688767 -0.036604263 0.6164937 0.18291497
0.26306143 0.1567851 0.14462706 -0.010630849 0.82031953 0.14296263 0.48810607 0.3960055
0.7569733 0.43444756 0.7899549 0.1721065 0.34531367 0.54351 0.34546232 0.10786484
0.11427506 0.2107635 0.4659546 0.47975785 0.43425873 -0.29120168 0.31821638 0.1283982
0.6013677 0.21830826 0.31057426 0.057837628 -0.031582713 0.19710253 0.59136313 0.4581338
0.53769183 -0.033159688 0.16447113 0.4046623 0.21579224 0.1083746 0.38163656 0.083739854
0.08286855 0.018705307 -0.009155046 0.13126516 -0.27575427 -0.19972447 0.11098301 0.13216166
-0.021375354 0.1004443 -0.35572934 0.2556802 -0.027511403 -0.11916474 0.030744234 -0.011348939
0.033451363 -0.3327662 -0.07479124 -0.17133957 0.11664545 -0.45131648 -0.23505731 0.067202576
-0.08535286 -0.20357154 -0.14703678 -0.12387459 0.19388881 0.11702302 -0.04876511 0.2679216
0.06599163 0.14514115 0.052201193 -0.046316177 0.24346003 0.117329895 0.16986112 0.28327549
0.14458379 0.2872631 -0.10710997 0.056209214 -0.002553742 0.17387725 0.20578237 0.23252366
-0.06449072 -0.3303192 -0.1681141 0.4192941 0.040668316 0.25545672 -0.01860955 -0.08125401
-0.01394321 -0.06658885 0.05928663 0.17067574 0.15535632 0.041221764 -0.25067186 -0.34276357
00000000: 4435 d43d 0ef6 febd ccaa acbd f28a c23d
00000010: fea9 2f3e cb89 4cbe 8603 bf3b d5d4 38bb
00000020: e5af 2ebe 116c 2bbe 0c82 bc3e d78b 283e
00000030: 25b6 6cbd b72b 853e 32a2 db3d 79a7 67bd
00000040: 32cb 5b3c f1d2 08bd b403 76be a863 8a3d
00000050: 40de 11bd 60e3 103d 2a9c bebd d5e0 893e
00000060: d9f1 043d f29a 85bd fdb8 063c 8993 523d
00000070: 8851 6d3e 0178 63bd 2869 613e ea9b e3bd
00000080: 8fef a93e ca5f 513d 40e0 423c 5d65 babd
00000090: 3373 aa3d ac31 0b3e a76a 973d f072 a8bd
000000a0: 3575 103d 2c2d 2a3e 7b5b 45bd 6d20 12bd
000000b0: 34f2 90bd 8a4e a7bd d036 8cbd af2e 58bd
000000c0: d51a a4be 9320 533d 8e24 733d c216 f1bd
000000d0: 82be 823e bd9f d23b fed8 b8bd 4a32 243c
000000e0: e09d 313e 80b6 ebbd 4078 b5be 9c50 b2bd
000000f0: d967 af3e 86d0 29bb 0b57 99be 1c20 753d
00000100: 07c0 623e c544 053e 5ef1 cb3d 6acd 403f
00000110: 4b0c 943d b57f 883e a775 6b3e f13f 4dbd
00000120: 8884 863e 0c20 3f3e 1684 643d 5d07 8bbe
00000130: 4540 593e d5fd 493e 222d 2d3d 693f dc3e
00000140: 4b21 91bd 117d 29bd 5baa bf3e acd0 c2bc
00000150: 482c 0c3e 5aee 15bd 88d2 1d3f 104e 3b3e
00000160: fdaf 863e 468c 203e 1e19 143e 032d 2ebc
00000170: 7600 523f cc64 123e 0ae9 f93e 3cc1 ca3e
00000180: 01c9 413f e96f de3e 7c3a 4a3f b03c 303e
00000190: f4cc b03e 7923 0b3f 70e0 b03e 3ee8 dc3d
000001a0: 0b09 ea3d 63d2 573e 9a91 ee3e d2a2 f53e
000001b0: 2957 de3e 6318 95be 42ed a23e d17a 033e
000001c0: 3cf3 193f 338c 5f3e 9703 9f3e 26e7 6c3d
000001d0: e05c 01bd 3fd5 493e 9363 173f 8390 ea3e
000001e0: 2ca6 093f 74d2 07bd 1f6b 283e e62f cf3e
000001f0: a4f8 5c3e 81f3 dd3d de65 c33e cd7f ab3d
00000200: fdb6 a93d df3b 993c 0cff 15bc 606a 063e
00000210: aa2f 8dbe 9284 4cbe 0f4b e33d 6355 073e
00000220: 5e1b afbc beb5 cd3d 2822 b6be 84e8 823e
00000230: 985f e1bc a50c f4bd 55db fb3c e6f0 39bc
00000240: 4c04 093d 5560 aabe 262c 99bd a473 2fbe
00000250: cfe3 ee3d f412 e7be ddb2 70be 81a1 893d
00000260: 7bcd aebd 0f75 50be cf90 16be f6b1 fdbd
00000270: ca8a 463e c4a9 ef3d edbd 47bd 052d 893e
00000280: 9f26 873d e29f 143e ebd0 553d 08b6 3dbd
00000290: 964d 793e a84a f03d 13f0 2d3e 7c09 913e
000002a0: c60d 143e 2614 933e 795c dbbd a23b 663d
000002b0: ae5c 27bb e10c 323e 9db8 523e af1a 6e3e
000002c0: b613 84bd 991f a9be 1a26 2cbe b7ad d63e
000002d0: d293 263d 39cb 823e 0e73 98bc 8168 a6bd
000002e0: 1072 64bc bc5f 88bd 8ad6 723d 9fc5 2e3e
000002f0: ba15 1f3e 27d8 283d 1058 80be b57e afbe

fc1.weight f4 [128, 64]
-0.011873354 -0.0057846517 -0.024580715 0.1976644 -0.091995075 0.123835035 -0.13602707 -0.14544468
-0.029609919 0.17554587 0.1618671 -0.122817054 0.015413298 0.056399036 -0.14723168 -0.05516594
-0.10768361 0.04151207 -0.034330137 -0.02642926 0.03742315 0.085651614 0.3313324 0.13011967
0.049234215 -0.029860422 -0.12757494 -0.028424066 -0.24792194 -0.1307412 -0.03967578 0.17637584
0.1453948 0.100018464 0.05023982 -0.16337217 -0.10952824 0.15036571 0.118840925 -0.1764541
0.034457836 -0.037795328 -0.21824561 0.22850314 -0.10552773 0.12484853 0.02516709 0.17608526
-0.25750303 0.041252524 0.18048361 0.0043624495 -0.27894223 0.058436964 -0.18874195 0.08319934
-0.061869375 0.13614471 0.16272673 -0.051113807 0.047770355 -0.0830144 0.17354497 0.038965862
-0.04241056 -0.045484394 -0.03685485 0.1647112 0.0072016055 0.07881167 0.17025042 -0.20697348
0.057609893 0.11748827 -0.047662646 0.030985069 -0.1059113 0.05693234 0.024471333 0.08349709
0.018347533 -0.11569786 -0.0306753 0.11989749 0.10326817 -0.027032739 0.29173923 -0.03791964
0.111865416 -0.025209248 0.025843812 0.1919672 -0.16190287 -0.18596943 -0.079470254 -0.13041762
0.13872059 0.006673319 0.23441455 -0.072879806 -0.014938527 -0.043213446 -0.114637606 0.15265861
0.10978993 -0.025435707 0.031134333 0.021871293 -0.47616005 0.03611572 -0.08579043 0.10336128
0.02615922 -0.03142058 -0.050754726 -0.14731155 0.02303102 0.0029815845 -0.12787177 0.14963454
0.08747628 0.033886347 -0.0675169 -0.16271187 0.002479335 0.13694571 0.12094654 -0.037021868
0.084744416 -0.053497422 -0.09242821 -0.1258921 0.09836886 -0.08575128 0.053659115 0.23448405
0.15674493 0.047136843 -0.059267815 -0.042917926 0.016064456 0.15391697 0.14815795 0.002004148
0.09199456 -0.1165417 0.10422774 -0.066613846 0.3095875 -0.05704106 0.1524941 -0.013476878
-0.13565798 0.1527034 -0.028065514 0.15039586 -0.0706258 -0.20092022 0.03810938 -0.0640691
0.020858532 -0.114174046 -0.07947596 0.20122528 0.12554014 0.09509732 -0.04582481 -0.0662623
-0.3574228 -0.14537014 0.018394524 0.099078536 -0.09724567 0.036054082 -0.2250222 -0.2880117
-0.05432368 -0.06942282 0.038129386 -0.22496432 0.17222612 -0.24201475 -0.056708746 -0.060646527
-0.03693863 -0.022396713 0.0693156 0.05330172 0.32331946 -0.028809529 0.062363364 0.07553065
-0.13137192 -0.019663572 -0.07757256 -0.044083323 0.15738098 -0.04600361 0.2785021 -0.22248061
0.07543583 0.08664141 0.0022286156 0.04033729 -0.05063234 -0.13144112 0.08665953 0.04766954
-0.037388876 -0.07831968 -0.05081999 -0.011695557 0.124792784 -0.12606974 0.2522188 -0.12169249
0.0028809307 0.123783715 0.066301756 0.18783043 -0.1041873 -0.22640291 -0.00151182 -0.2181357
0.06785595 -0.006289379 0.30990326 -0.1965223 0.089340836 -0.09243766 -0.034213837 0.13450804
0.18092339 -0.061910078 0.051890634 0.089443654 -0.3162591 -0.038240578 -0.004444356 0.13714807
0.07532618 -0.09690534 -0.14649795 -0.07876751 -0.06145818 0.003298221 -0.2968153 0.12123152
0.10239231 0.051770505 -0.16040485 -0.13596117 0.019941246 0.16642626 0.25338206 0.025821397
00000000: 7588 42bc 2d8d bdbb 7f5d c9bc 8968 4a3e
00000010: ea67 bcbd 399d fd3d ae4a 0bbe 73ef 14be
00000020: 8090 f2bc 4cc2 333e 7dc0 253e 8287 fbbd
00000030: 0f88 7c3c ad02 673d e7c3 16be aef5 61bd
00000040: 3989 dcbd 8f08 2a3d c29d 0cbd 2d82 d8bc
00000050: 0449 193d 1d6a af3d 66a4 a93e 173e 053e
00000060: d1a9 493d d89d f4bc 01a3 02be 96d9 e8bc
00000070: 40df 7dbe 05e1 05be 1283 22bd de9b 343e
00000080: 60e2 143e 7bd6 cc3d 45c8 4d3d 094b 27be
00000090: 5850 e0bd 78f9 193e df62 f33d 62b0 34be
000000a0: a923 0d3d 46cf 1abd c77b 5fbe bafc 693e
000000b0: ec1e d8bd 96b0 ff3d 372b ce3c b24f 343e
000000c0: 70d7 83be 68f8 283d b2d0 383e e1f2 8e3b
000000d0: 84d1 8ebe 995b 6f3d 9245 41be 6a64 aa3d
000000e0: be6a 7dbd 8569 0b3e d6a1 263e b65c 51bd
000000f0: d9aa 433d 7403 aabd c6b5 313e ab9a 1f3d
00000100: b2b6 2dbd d84d 3abd 1cf5 16bd 0eaa 283e
00000110: 72fb eb3b 0368 a13d 2056 2e3e dbf0 53be
00000120: 5af8 6b3d b19d f03d e839 43bd 66d4 fd3c
00000130: 06e8 d8bd e331 693d 1b78 c83c 8600 ab3d
00000140: 914d 963c 00f3 ecbd c44a fbbc d18c f53d
00000150: 437e d33d c373 ddbc d85e 953e a051 1bbd
00000160: b219 e53d a083 cebc 67b6 d33c 0d93 443e
00000170: dec9 25be c56e 3ebe 4dc1 a2bd 328c 05be
00000180: c50c 0e3e dbab da3b 5e0a 703e 0242 95bd
00000190: b9c0 74bc 9500 31bd 1fc7 eabd 8a52 1c3e
000001a0: 8bd9 e03d 8b5e d0bc 6e0d ff3c 6d2b b33c
000001b0: 40cb f3be 14ee 133d e5b2 afbd 14af d33d
000001c0: dc4b d63c deb2 00bd 30e4 4fbd d7d8 16be
000001d0: 8dab bc3c b066 433b d1f0 02be cc39 193e
000001e0: c426 b33d 69cc 0a3d 4d46 8abd f19d 26be
000001f0: 577c 223b 7f3b 0c3e d2b2 f73d 3ea4 17bd
00000200: 7b8e ad3d 1d20 5bbd 004b bdbd dce9 00be
00000210: 9d75 c93d 5e9e afbd a9c9 5b3d 961c 703e
00000220: be81 203e 9012 413d cfc2 72bd b5ca 2fbd
00000230: 9b99 833c 699c 1d3e b8b6 173e 0658 033b
00000240: a567 bc3d 6aad eebd 5a75 d53d d76c 88bd
00000250: 4182 9e3e e3a3 69bd 6a27 1c3e 20ce 5cbc
00000260: ede9 0abe 485e 1c3e a6e9 e5bc 5f01 1a3e
00000270: 42a4 90bd 08be 4dbe 9518 1c3d a936 83bd
00000280: 83df aa3c 15d4 e9bd 4bc4 a2bd 000e 4e3e
00000290: 988d 003e 62c2 c23d ccb2 3bbd 87b4 87bd
000002a0: 1f00 b7be e9db 14be 1db0 963c b0e9 ca3d
000002b0: bd28 c7bd 72ad 133d 386c 66be 4576 93be
000002c0: 8282 5ebd 8d2d 8ebd 8f2d 1c3d 0c5d 66be
000002d0: 0b5c 303e b7d2 77be 6e47 68bd 7e68 78bd
000002e0: f64c 17bd 5079 b7bc 56f5 8d3d e852 5a3d
000002f0: 218a a53e f601 ecbc ba70 7f3d d0af 9a3d
00000300: 5c86 06be 8015 a1bc 5dde 9ebd b790 34bd
00000310: 7b28 213e 486e 3cbd d497 8e3e f5d1 63be
00000320: 1a7e 9a3d 0d71 b13d f70d 123b b738 253d
00000330: db63 4fbd 8098 06be 8d7a b13d 2341 433d
00000340: 1425 19bd 1266 a0bd 9f28 50bd b99e 3fbc
00000350: 5c93 ff3d 6d18 01be d322 813e ea39 f9bd
00000360: ffcd 3c3b 5182 fd3d 37c9 873d 9f56 403e
00000370: 2760 d5bd 2ad6 67be 4328 c6ba f75e 5fbe
00000380: 0ff8 8a3d 2317 cebb a4ab 9e3e 243d 49be
00000390: 54f8 b63d f54f bdbd cf23 0cbd 7abc 093e
000003a0: fb43 393e 6c95 7dbd 468b 543d 3c2e b73d
000003b0: b6ec a1be 27a2 1cbd f6a1 91bb 8b70 0c3e
000003c0: 9d44 9a3d 4f76 c6bd 8f03 16be dc50 a1bd
000003d0: 93bb 7bbd f726 583b 2df8 97be 3b48 f83d
000003e0: 0fb3 d13d 4f0d 543d 2b41 24be 6839 0bbe
000003f0: d35b a33c a56b 2a3e 4bbb 813e 6587 d33c
