outputs/models/DK_gru_model.pt (torch, 199993 bytes, 12 tensors)

gru.weight_ih_l0 f4 [192, 1]
0	0x3e569dd5	0.20958646
1	0x3d8d7f5a	0.06909056
2	0xbe3659ce	-0.17807695
3	0xbe3d9447	-0.18513595
4	0x3e07a388	0.13245976
5	0x3e41674e	0.18887064
6	0x3e95cc91	0.29257634
7	0x3db46154	0.08807626
8	0xbcb22b7a	-0.021749247
9	0x3e7f259a	0.24916688
10	0x3ec6ad45	0.3880407
11	0x3e7a2bba	0.24430743
12	0x3ea9674a	0.33086616
13	0x3f4353ca	0.76299727
14	0x3d2640b8	0.040589064
15	0x3ed5d721	0.41765693
16	0x3b1aa8d8	0.0023599174
17	0xbe94429b	-0.28957066
18	0x3c89a2fa	0.016801346
19	0xbc1db902	-0.009626629
20	0x3f038522	0.5137502
21	0xbe4e7477	-0.20161615
22	0x3ec33a14	0.38130248
23	0xbdbf40d8	-0.0933854
24	0xbd5370ef	-0.051621374
25	0x3bc23ef2	0.005927914
26	0xbbed1e25	-0.0072362595
27	0x3e95c492	0.29251534
28	0xbe87a62a	-0.2649396
29	0x3e0fcf30	0.1404388
30	0xbe512b91	-0.20426776
31	0xbe4a36da	-0.19747487
32	0x3e96cc59	0.2945278
33	0x3e976562	0.29569536
34	0xbe18cc0e	-0.1492159
35	0xbc09daad	-0.008413953
36	0x3e16f0a4	0.14740235
37	0x3dfcb6b3	0.123395346
38	0xbd8b0a5a	-0.06789084
39	0xbe2c65fc	-0.16835779
40	0xbe854822	-0.26031595
41	0xbd7d6658	-0.06186518
42	0x3d524e35	0.051344115
43	0x3e223afd	0.15842815
44	0xbe8c1c8e	-0.27365535
45	0xbd1fb4e5	-0.038990874
46	0xbbc43fb0	-0.0059890375
47	0x3e1e909a	0.15484849
48	0x3d3d9cbf	0.046292063
49	0xbf05f971	-0.5233374
50	0xbd2b7a91	-0.041864935
51	0x3e4215eb	0.18953674
52	0xbd8be97f	-0.06831645
53	0x3e949050	0.29016352
54	0xbeb773cb	-0.3583053
55	0xbd5c70d2	-0.05381853
56	0xbe8375bb	-0.2567576
57	0xbdcc6c20	-0.09981561
58	0xbec1bd01	-0.3783951
59	0x3f01fac0	0.5077324
60	0x3e9f4b27	0.31112024
61	0xbe44564a	-0.19173542
62	0xbe52a305	-0.2057
63	0xbdfa22c4	-0.12213662
64	0xbe706c1c	-0.2347874
65	0x3f249572	0.64290535
66	0xbdb9b0e5	-0.09066943
67	0x3f4f7355	0.8103536
68	0x3f294740	0.66124344
69	0x3e75978c	0.23983592
70	0x3edc473a	0.43023092
71	0xbe82a00a	-0.25512725
72	0xbb4146aa	-0.0029491582
73	0x3e69451d	0.22780271
74	0x3dcb227c	0.09918687
75	0x3bdbf782	0.006712855
76	0xbe73d9de	-0.23813578
77	0x3f5cd24a	0.86258376
78	0x3f07733a	0.52910197
79	0x3e0d9167	0.13824998
80	0xbe595bf7	-0.21226488
81	0x3d7d3b94	0.061824396
82	0x3f167690	0.5877466
83	0x3e635dda	0.2220377
84	0xbd6aca25	-0.057321686
85	0xbe554286	-0.20826158
86	0xbcfc0530	-0.030764192
87	0xbd3174d1	-0.043324295
88	0x3f5aa356	0.8540548
89	0x3d0c17db	0.034202438
90	0x3e7964f8	0.24354923
91	0x3e6186bc	0.22024053
92	0xbf0e03be	-0.5547446
93	0x3dea596a	0.11442836
94	0xbe8db28b	-0.2767528
95	0x3e8c0943	0.27350816
96	0xbe0dd485	-0.13850601
97	0x3dabbf9e	0.083861575
98	0x3dff0848	0.124527514
99	0x3f4fd093	0.81177634
100	0x3e760b02	0.24027637
101	0xbf095c1a	-0.5365616
102	0xbdb97b69	-0.09056742
103	0xbf397691	-0.7244654
104	0xbeeb1edc	-0.4592198
105	0x3e909eca	0.28246146
106	0xbd9f05fd	-0.07764814
107	0x3e81027b	0.25197205
108	0xbf241298	-0.6409087
109	0xbe52dac2	-0.20591262
110	0x3d8bab0d	0.06819735
111	0xbe7ecdb8	-0.24883163
112	0x3e7ac574	0.24489385
113	0xbd700324	-0.058596745
114	0xbe5518c8	-0.20810235
115	0xbe36be65	-0.17846067
116	0x3c9f0ffd	0.019416803
117	0xbefe8cc0	-0.4971676
118	0x3ea08394	0.31350386
119	0xbd925c5b	-0.07146522
120	0x3f49ec6c	0.78876376
121	0xbde080b6	-0.1096205
122	0xbf250ebb	-0.644756
123	0x3e4b6c18	0.19865453
124	0x3d83111a	0.06399746
125	0xbe9e8856	-0.3096339
126	0xbd9a63b1	-0.07538546
127	0x3f10550a	0.5637976
128	0xbe68697d	-0.2269649
129	0xbf02ab80	-0.5104294
130	0xbe075ec0	-0.13219738
131	0xbf06726a	-0.5251833
132	0xbe9661bb	-0.29371437
133	0xbd78bc77	-0.06072661
134	0x3ec37e3a	0.3818224
135	0x3e0635be	0.13106439
136	0xbdf6f084	-0.120575935
137	0xbe9ff5e5	-0.3124229
138	0xbe97afc6	-0.29626292
139	0x3e0e6e2a	0.13909212
140	0xbeeff6ce	-0.46867985
141	0xbe3d4edb	-0.18487112
142	0x3f078555	0.52937824
143	0xbee0f1e8	-0.4393456
144	0xbed6bbef	-0.41940257
145	0x3ce82538	0.02833806
146	0x3e62a89b	0.2213463
147	0x3ef6d17b	0.48206696
148	0x3e713f80	0.2355938
149	0x3e059f4a	0.13049045
150	0x3e8f1d87	0.27952215
151	0x3dbca03f	0.09210252
152	0x3e9714fa	0.2950819
153	0xbe05c26e	-0.1306245
154	0x3d9d20a0	0.07672238
155	0x3e83053e	0.25589937
156	0xbd29d61f	-0.041463967
157	0x3e78006b	0.2421891
158	0x3f134d2e	0.5753964
159	0xbea2262c	-0.31669748
160	0xbe8ab9bb	-0.27094826
161	0x3e8fbc3e	0.28073305
162	0xbd90117e	-0.07034586
163	0x3f076cb5	0.5290025
164	0xbe475d52	-0.19469193
165	0xbe325344	-0.17414576
166	0x3ec0c7e5	0.37652507
167	0xbe2dc342	-0.16969016
168	0x3e42c801	0.19021608
169	0xbd1d7440	-0.038440943
170	0x3cb6208e	0.02223232
171	0xbe533390	-0.20625138
172	0xbf18fcfb	-0.5976102
173	0x3e21d00b	0.15802018
174	0x3e2bf474	0.1679247
175	0x3ecb6aed	0.39730015
176	0xbdc77d0b	-0.09740647
177	0x3c0ac1cf	0.008469059
178	0x3f047913	0.51747245
179	0xbd5c0db9	-0.053724024
180	0xbe2b3e5b	-0.16723005
181	0x3e87bba9	0.2651036
182	0xbf1317ef	-0.57458395
183	0xbdab2b3f	-0.08357858
184	0xbf0dd8c6	-0.55408895
185	0xbe40f6d4	-0.18844157
186	0xbefd83ba	-0.49514562
187	0xbe0fb656	-0.140344
188	0xbd3a6edf	-0.04551589
189	0x3ef61c0a	0.48068267
190	0x3d9301dd	0.0717809
191	0x3ecbc2df	0.39797112

gru.weight_hh_l0 f4 [192, 64]
0	0xbe68d8f3	-0.2273901
1	0xbd2e5180	-0.042558193
2	0x3d55db1f	0.052210923
3	0x3da49e93	0.08038058
4	0x3d66c107	0.05633643
5	0xbe807d8c	-0.25095785
6	0xbc62c78c	-0.013841521
7	0xbcfb3626	-0.030665468
8	0x3eb05cd3	0.3444582
9	0x3ec690a1	0.38782218
10	0x3cb0a63b	0.02156364
11	0x3d56e00a	0.052459754
12	0x3ed93ead	0.4243063
13	0x3dec4040	0.11535692
14	0x3cde8f2a	0.027167875
15	0x3e89ce83	0.26915368
16	0x3dd96112	0.10614218
17	0xbe6044c4	-0.21901232
18	0xbe0dcf60	-0.13848639
19	0xbe4a7122	-0.19769719
20	0xbe7e3f6b	-0.2482888
21	0xbdcda537	-0.10041278
22	0xbe9fe157	-0.31226608
23	0x3eb0401b	0.3442391
24	0x3e30e36b	0.17274253
25	0x3e6dee52	0.23235443
26	0x3dec10c5	0.11526636
27	0xbf0ae5ab	-0.54256696
28	0xbe10fa1d	-0.1415791
29	0xbe987e37	-0.29783794
30	0xbe44d180	-0.19220543
31	0x3c973f4e	0.018462803
32	0x3d7659aa	0.060144104
33	0x3bd2ecac	0.006436905
34	0x3e850163	0.2597762
35	0xbe4bf01c	-0.19915813
36	0x3e51b1c8	0.20477974
37	0x3de86869	0.1134804
38	0xbe8d2bd6	-0.27572507
39	0xbe41e00e	-0.18933126
40	0x3e8ad41b	0.2711495
41	0x3e03589b	0.12826769
42	0xbe5968af	-0.2123134
43	0x3e1be66a	0.15224615
44	0x3d24fe8e	0.040281825
45	0xbe72adba	-0.23699084
46	0x3e21c129	0.15796341
47	0xbceb8bcf	-0.02875319
48	0xbc8d6fc7	-0.017265214
49	0x3e7b6726	0.24551067
50	0xbe02fa16	-0.12790713
51	0x3e708925	0.23489816
52	0xbe856f16	-0.26061314
53	0xbeae00a9	-0.3398488
54	0xbd5cf401	-0.053943638
55	0x3d53f75f	0.051749583
56	0x3e9fe99a	0.3123291
57	0xbea47f7b	-0.3212851
58	0x3e4e2f68	0.20135272
59	0x3e9231ca	0.2855361
60	0x3e0cd2a5	0.1375223
61	0x3e240911	0.16019084
62	0x3e18759d	0.14888616
63	0x3dce77c8	0.1008144
64	0x3e342888	0.17593586
65	0xbc8c211e	-0.017105635
66	0xbe512e9d	-0.20427938
67	0x3c8f55b2	0.017496917
68	0xbde37706	-0.11106686
69	0x3ce6668b	0.028125068
70	0x3c162498	0.009163998
71	0xbc639775	-0.013891091
72	0xbc8e0327	-0.017335488
73	0xbcdf1fc0	-0.02723682
74	0xbd435683	-0.047689926
75	0xbea5fb96	-0.32418507
76	0xbdc56c2f	-0.09639775
77	0xbdce9ed5	-0.100888886
78	0x3b9cb44d	0.0047822357
79	0x3b66548a	0.0035145604
80	0xbe0a2907	-0.13492213
81	0x3e383dc9	0.17992319
82	0xbd0dba5a	-0.034601547
83	0x3ddcf4c0	0.1078887
84	0xbe8013d0	-0.25015116
85	0xbe0efffd	-0.1396484
86	0x3e5304e9	0.20607342
87	0xbe084547	-0.13307677
88	0x3e6f2655	0.23354466
89	0xbe024e28	-0.12725127
90	0xbe4e162e	-0.20125648
91	0x3e30f595	0.17281182
92	0x3d591ea9	0.053007755
93	0x3e23d4e9	0.15999188
94	0x3a1010df	0.0005495678
95	0x3d313b80	0.043269634
96	0x3ba59bf4	0.0050539915
97	0xbd035359	-0.03206191
98	0x3e261b8e	0.16221449
99	0xbd715238	-0.0589163
100	0x3c8e2d95	0.01735572
101	0x3e8d4bae	0.27596802
102	0xbd8e3d8c	-0.06945333
103	0xbe268e6a	-0.16265264
104	0xbe15607a	-0.14587584
105	0x3e57f09c	0.21087879
106	0x3daf81d7	0.08569687
107	0x3ccfc250	0.02536121
108	0x3db27889	0.087143965
109	0x3e672d4a	0.2257587
110	0xbde2215a	-0.110415176
111	0xbd8760ba	-0.06610246
112	0x3e03ec7f	0.12883185
113	0xbccec225	-0.02523906
114	0x3dec85cd	0.11548958
115	0xbcbd71e9	-0.023125606
116	0x3d0809c7	0.03321245
117	0x3d4c9e94	0.04995592
118	0x3b963d11	0.0045849164
119	0x3e1a12e3	0.15046267
120	0xbe19d7df	-0.15023755
121	0xbbdefeb5	-0.006805266
122	0x3d9e1e78	0.07720655
123	0xbd85e4f5	-0.06537811
124	0xbde1d149	-0.11026246
125	0x3da81be5	0.082084455
126	0xbd48f10c	-0.049058005
127	0x3d1f1eeb	0.038847845
128	0x3eb474b3	0.35245284
129	0x3e1d393e	0.15353867
130	0x3e5351b1	0.20636632
131	0x3e2ddc19	0.16978492
132	0x3d4bf74b	0.049796384
133	0xbed2f789	-0.4120448
134	0xbd99fa3d	-0.07518432
135	0xbde83b87	-0.11339479
136	0x3e6b99e3	0.23007922
137	0x3edb982b	0.42889532
138	0x3e2c3112	0.16815594
139	0xbdf59c7f	-0.1199274
140	0x3e538970	0.20657897
141	0xbd4c3998	-0.049859613
142	0x3d263c10	0.040584624
143	0x3f0f9f4b	0.56102437
144	0x3e30e333	0.1727417
145	0x3f1adb44	0.6049082
146	0x3dfd94bf	0.12381887
147	0xbeb20c2c	-0.3477491
148	0xbefc632b	-0.4929441
149	0xbc3e956a	-0.011632303
150	0xbd87488f	-0.06605636
151	0xbe9f9115	-0.31165376
152	0x3e992c6f	0.29916713
153	0xbdb35273	-0.0875596
154	0xbe6df59f	-0.23238228
155	0xbe50cd34	-0.20390779
156	0x3f0203ae	0.50786865
157	0xbe5e3d23	-0.2170301
158	0xbe36df73	-0.17858677
159	0xbe2a9dfb	-0.16661827
160	0xbe5a5bea	-0.21324125
161	0xbd8b9efc	-0.06817433
162	0x3e05a585	0.13051422
163	0xbdebfe5f	-0.11523127
164	0xbe7174a1	-0.23579647
165	0xbcbba907	-0.022907747
166	0xbe3fca75	-0.18729575
167	0xbef58f5a	-0.4796093
168	0xbe71e10e	-0.23621008
169	0x3f1a1472	0.6018745
170	0xbdbbddac	-0.0917314
171	0xbccb76e3	-0.024836963
172	0x3ed2fc0e	0.41207927
173	0x3f0e6458	0.5562186
174	0x3e3bf3fc	0.18354791
175	0xbd90386f	-0.07042014
176	0xbda4ff94	-0.0805656
177	0x3e9f59a1	0.3112307
178	0x3e9ead22	0.30991465
179	0xbeb6fc05	-0.3573915
180	0xbceeccc1	-0.029150369
181	0x3d5590fc	0.05214022
182	0x3e55a587	0.20863925
183	0x3dd3ffa2	0.103514925
184	0x3e26c077	0.16284357
185	0x3dfd17a3	0.12358024
186	0xbe1e0c86	-0.15434465
187	0xbc3b7e8c	-0.011443745
188	0x3e90753e	0.2821445
189	0xba0918af	-0.00052298134
190	0x3e427576	0.1899012
191	0xbd16ee96	-0.036848627
192	0x3d7cf530	0.061757267
193	0x3e3416cc	0.17586821
194	0xbe9d0ce0	-0.30673885
195	0xbe06bada	-0.13157216
196	0x3ccac423	0.024751728
197	0xbe4c747e	-0.19966313
198	0xbcd08546	-0.025454175
199	0xbe11c8e2	-0.14236787
200	0xbda4375b	-0.08018371
201	0x3e0dd65b	0.13851301
202	0xbde7eb16	-0.11324136
203	0xbc3c050d	-0.011475814
204	0xbd41d1fa	-0.04731939
205	0xbdb7236a	-0.089423016
206	0x3ada8f07	0.0016674706
207	0x3e3f075b	0.1865515
208	0xbc9c2c82	-0.019064192
209	0x3e52517f	0.20538901
210	0x3d7bd309	0.061480556
211	0x3d29160a	0.041280784
212	0xbe00ed29	-0.1259047
213	0xbe33d62e	-0.17562172
214	0x3ce82eba	0.028342593
215	0xbd491087	-0.049088027
216	0x3bb4bf9a	0.0055160047
217	0xbe3dcd64	-0.18535382
218	0x3e4d9281	0.20075418
219	0x3be603ba	0.007019487
220	0xbe014b31	-0.1262634
221	0x3e110afa	0.14164343
222	0xbde607fa	-0.1123199
223	0x3d353f5c	0.044249877
224	0x3cb4abd5	0.022054592
225	0x3c99f2cb	0.01879253
226	0xbdbef0b2	-0.09323253
227	0xbe146f10	-0.14495492
228	0x3db5e218	0.088810146
229	0x3e6fc810	0.23416162
230	0xbc842889	-0.01613261
231	0xbeb16254	-0.3464533
232	0xbd26300c	-0.040573165
233	0x3e50eb5d	0.20402284
234	0x3e533fc5	0.20629795
235	0x3e177f6c	0.14794701
236	0x3e6f9b4f	0.2339909
237	0x3dcec98d	0.100970365
238	0xbe050ab2	-0.12992361
239	0x3d7e949b	0.06215344
240	0x3d50839d	0.050906766
241	0xbe98b8f8	-0.2982862
242	0xbe0a605b	-0.13513319
243	0xbd3c8265	-0.04602279
244	0xbd2eb590	-0.04265362
245	0x3cb5a0df	0.022171436
246	0x3cdb3ac7	0.026761426
247	0x3e8c9fe8	0.2746575
248	0xbd6945bb	-0.056951266
249	0x3dab560f	0.08366024
250	0x3e2026f0	0.15639853
251	0xbd8671a7	-0.06564646
252	0x3c6fa57e	0.014626859
253	0x3de71b70	0.1128453
254	0xbd792d2c	-0.060834095
255	0x3d8b77d7	0.06809967

gru.bias_ih_l0 f4 [192]
0	0xbed56870	-0.41681242
1	0xbd8efce8	-0.06981832
2	0x3cd8ac69	0.0264494
3	0x3bc78bec	0.006089678
4	0xbe04b832	-0.1296089
5	0xbd0707eb	-0.032966536
6	0x3df9a5ee	0.12189852
7	0xbe520bdb	-0.20512335
8	0xbeaa5157	-0.33265182
9	0xbe24e056	-0.16101202
10	0xbea536be	-0.32268327
11	0xbeb94b65	-0.36190334
12	0x3dd4381a	0.10362263
13	0xbe6dea3f	-0.23233889
14	0x3d93dfd6	0.07220428
15	0xbce7812d	-0.028259838
16	0xbe0a1bcb	-0.13487165
17	0xbdcac6d3	-0.09901204
18	0xbe8351eb	-0.25648436
19	0xbd4f69a4	-0.050637856
20	0xbeef2124	-0.46704972
21	0xbe8b553c	-0.27213466
22	0x3ca3e185	0.020004997
23	0xbf3dd737	-0.74156517
24	0x3c6f4226	0.014603173
25	0x3dc3d285	0.09561638
26	0xbee58aa6	-0.44832343
27	0xbdd3c72e	-0.10340725
28	0x3ba1781a	0.0049276473
29	0xbf2a003a	-0.66406596
30	0x3de7acd6	0.11312263
31	0xbe0c12f5	-0.13679107
32	0xbe239af7	-0.15977083
33	0xbd21f6b9	-0.039541934
34	0xbebfe8df	-0.37482354
35	0xbd9d0325	-0.076666154
36	0xbe6831c3	-0.22675233
37	0xbea3e9da	-0.32014352
38	0x3d13b2ed	0.03605931
39	0xbd990495	-0.07471577
40	0xbee40e8c	-0.44542348
41	0x3e71fd23	0.2363172
42	0xbe0bcc7e	-0.13652226
43	0xbe00e7d1	-0.12588431
44	0x3e0e6591	0.13905932
45	0xbdf95e28	-0.12176162
46	0xbe7b151d	-0.24519773
47	0xbdc763cf	-0.09735834
48	0xbe152b1d	-0.14567228
49	0xbddbd342	-0.107336536
50	0xbcf6efe2	-0.030143682
51	0xbe74c9cd	-0.23905106
52	0xbe48ed34	-0.19621736
53	0xbe17ee7b	-0.14837067
54	0x3ded842b	0.11597475
55	0xbe0a117e	-0.13483235
56	0x3b8b2b74	0.0042471234
57	0xbecaab18	-0.3958366
58	0xbd984420	-0.07434869
59	0xbe0bcf94	-0.13653404
60	0xbea370a1	-0.31921867
61	0x3d8884a5	0.06665925
62	0xbea7bc72	-0.3276096
63	0xbe7f47e8	-0.24929774
64	0x3ceb51ef	0.028725592
65	0xbf42a1ab	-0.76027936
66	0x3f9d5cce	1.2293947
67	0xbf81b32c	-1.0132804
68	0xbee4105f	-0.4454374
69	0x3f5af20f	0.855256
70	0xbefe9d32	-0.49729306
71	0x3f05b180	0.5222397
72	0x3f816460	1.0108757
73	0xbcb5e3ef	-0.022203414
74	0xbe041a5b	-0.12900679
75	0x3e374ec8	0.17901146
76	0xbf940a11	-1.1565572
77	0x3ea79421	0.327302
78	0xbf9fc717	-1.2482632
79	0xbf0e3674	-0.5555184
80	0xbed31fb4	-0.41235125
81	0x3e9d6e6c	0.30748308
82	0xbc2539c5	-0.010084574
83	0xbf8f39dc	-1.1189532
84	0x3f0ac7bd	0.54211026
85	0xbcd26ea1	-0.025687518
86	0xbe243ed1	-0.16039588
87	0x3e803de5	0.25047222
88	0x3e3ca878	0.1842364
89	0x3f287885	0.658089
90	0x3f39a11a	0.72511446
91	0xbeb5ba4c	-0.35493696
92	0x3f140009	0.57812554
93	0xbda8b13a	-0.08236928
94	0xbf943c47	-1.1580895
95	0xbd0e06c5	-0.034674425
96	0x3e11099b	0.1416382
97	0xbec17826	-0.37786978
98	0x3f39a08c	0.725106
99	0xbfa76b98	-1.307971
100	0xbd21fbf7	-0.039546933
101	0x3eb02e3b	0.3441027
102	0xbe497aeb	-0.19675796
103	0x3f03b0e5	0.51441795
104	0x3e658757	0.2241491
105	0x3f86610c	1.0498366
106	0x3e99206c	0.29907548
107	0xbe71a1c5	-0.23596866
108	0xbf6fed1c	-0.93721175
109	0x3e56bdb8	0.2097081
110	0x3e9ae4f0	0.3025279
111	0xbe8061b9	-0.25074556
112	0x3ee35519	0.44400862
113	0x3f729aa7	0.9476723
114	0xbe9a0721	-0.30083564
115	0x3f075953	0.5287067
116	0x3e75404b	0.23950307
117	0xbece8276	-0.4033391
118	0xbf54270d	-0.82872087
119	0x3f9134ea	1.1344273
120	0xbf97a3e9	-1.1846896
121	0x3e1c4393	0.15260153
122	0xbf74af32	-0.95579827
123	0x3ec2a67b	0.3801764
124	0x3ebbd838	0.366884
125	0xbf7b3ecd	-0.981427
126	0x3f1a16ab	0.6019084
127	0xbea6ac56	-0.32553357
128	0x3b3a8f12	0.0028466624
129	0x3d893c5d	0.067009665
130	0xbddb1b54	-0.10698572
131	0x3cbc93cd	0.023019696
132	0xbe19fc99	-0.15037765
133	0xbcdc5324	-0.026895113
134	0x3d22863e	0.039678805
135	0xbda672fc	-0.081274
136	0xbd12a079	-0.03579757
137	0xbe4ddf6b	-0.20104758
138	0x3d31633f	0.04330754
139	0x3d2342ae	0.039858513
140	0xbdd38061	-0.10327221
141	0xbd20bd47	-0.03924301
142	0xbe116246	-0.14197645
143	0xbd565846	-0.052330278
144	0x3dafec33	0.08589973
145	0xbcff1a03	-0.031140333
146	0xbdf8b428	-0.12143737
147	0x3db9b0ec	0.09066948
148	0x3e0c39c7	0.13693915
149	0x3de45d9c	0.11150667
150	0x3e415086	0.18878374
151	0x3c227403	0.009915355
152	0xbe324e5c	-0.17412704
153	0x3d978263	0.07397916
154	0x3e2cd7f3	0.16879253
155	0x3e2746ab	0.16335551
156	0x3de2aad4	0.11067739
157	0x3d9d0163	0.0766628
158	0xbd6b52bb	-0.057451945
159	0x3ca364fe	0.019945618
160	0x3d9ba722	0.076002374
161	0x3e0c1676	0.13680443
162	0x3d20afbd	0.039230097
163	0xbe057a03	-0.13034825
164	0xbddaed2c	-0.10689768
165	0x3cadcd74	0.021216132
166	0xbd6383b1	-0.055545513
167	0x3e280da0	0.16411448
168	0xbda063c5	-0.078315295
169	0xbb24da3e	-0.0025154497
170	0xbdd8dfef	-0.10589587
171	0xbde03585	-0.10947708
172	0x3e3a30dd	0.18182702
173	0xbe0a8725	-0.13528116
174	0xbdd98113	-0.10620322
175	0xbde7a3a7	-0.11310511
176	0xbde3de28	-0.11126357
177	0xbdd03b69	-0.101675816
178	0xbe0e986e	-0.13925335
179	0x3d8572ee	0.06516062
180	0xbd81f337	-0.06345218
181	0x3e24c0ed	0.1608922
182	0x3cf42cea	0.029806573
183	0xbd900d47	-0.070337825
184	0x3bafc100	0.0053635836
185	0x3de55f08	0.111997664
186	0x3e075ea1	0.13219692
187	0xbd9c0620	-0.07618356
188	0xbe16282a	-0.14663759
189	0xbd9ff1b7	-0.07809775
190	0xbda799df	-0.081836455
191	0x3cc0b909	0.023525732

gru.bias_hh_l0 f4 [192]
0	0xbf06fa18	-0.5272536
1	0x3da67058	0.081268966
2	0xbcddd31e	-0.027078208
3	0x3debfe70	0.115231395
4	0xbe09dfd4	-0.1346429
5	0xbd71ff57	-0.0590814
6	0x3b4f149e	0.0031597982
7	0xbd89fa5d	-0.06737206
8	0xbea98592	-0.3310972
9	0xbe2285c4	-0.1587134
10	0xbe98aeec	-0.29820955
11	0xbe840257	-0.25783035
12	0x3d4695d8	0.048482746
13	0xbeb81398	-0.3595245
14	0xbdbe58ac	-0.092942566
15	0xbd335660	-0.043783545
16	0x3b531ce1	0.0032213258
17	0xbdc9b069	-0.09848101
18	0xbe8ac984	-0.2710687
19	0xbd19d1fe	-0.03755378
20	0xbe68949a	-0.22712937
21	0xbe904c43	-0.28183183
22	0xbb27934a	-0.002556997
23	0xbf4285ea	-0.75985587
24	0x3e5fc860	0.21853781
25	0x3da960f8	0.082704484
26	0xbf06ed26	-0.5270561
27	0xbe023607	-0.12715922
28	0xbd0f6630	-0.035009563
29	0xbf2eda91	-0.68302256
30	0x3dfcbf01	0.123411186
31	0xbe7fe965	-0.24991377
32	0xbe90fbe3	-0.28317174
33	0xbd49b837	-0.049247947
34	0xbec3a0e4	-0.38208687
35	0x3d1e0f3f	0.03858876
36	0xbd287c4e	-0.04113417
37	0xbe525e9e	-0.20543906
38	0xbde238c2	-0.11045982
39	0xbe8d9142	-0.27649885
40	0xbebf5627	-0.37370417
41	0x3de761fe	0.112979874
42	0xbe32f014	-0.17474395
43	0xbe97f5e0	-0.29679775
44	0x3e3de3b1	0.18543889
45	0xbe65cb6d	-0.22440882
46	0xbdf05ebf	-0.117368214
47	0x3c89faf5	0.016843298
48	0xbe4d572b	-0.20052783
49	0xbddded26	-0.10836248
50	0x3dd5a941	0.10432673
51	0xbe2736d1	-0.16329505
52	0xbeb82c0f	-0.35971114
53	0xbdea3bae	-0.11437164
54	0x3c532470	0.012887105
55	0xbe3bd37a	-0.1834239
56	0x3cc40d38	0.023932084
57	0xbf22255c	-0.63338256
58	0x3d0dabea	0.03458778
59	0xbe865223	-0.2623454
60	0xbeab3ad7	-0.3344333
61	0x3d8de7b4	0.069289595
62	0xbeb33f7c	-0.35009372
63	0xbe164cab	-0.14677684
64	0x3ce49701	0.027904036
65	0xbf3eaebe	-0.74485385
66	0x3f99c786	1.2014015
67	0xbf8dcd22	-1.1078227
68	0xbebb4114	-0.36573088
69	0x3f5effb7	0.8710894
70	0xbef50d14	-0.4786154
71	0x3f171aee	0.59025466
72	0x3f8c223e	1.094795
73	0xbd326628	-0.043554455
74	0xbd91cfc2	-0.07119705
75	0xbb1fc13e	-0.0024376656
76	0xbf90858a	-1.1290753
77	0x3ebb010d	0.3652424
78	0xbfba4d64	-1.4554868
79	0xbf0049f7	-0.5011286
80	0xbf0486f7	-0.5176844
81	0x3e09b1cf	0.13446735
82	0xbe4581c6	-0.19287786
83	0xbf8b1637	-1.0866154
84	0x3f073e71	0.52829653
85	0x3df9c7a9	0.12196285
86	0xbe2ea35e	-0.17054507
87	0x3ea82349	0.3283942
88	0x3eb94b76	0.36190385
89	0x3f31af3a	0.69408
90	0x3f4dfb75	0.8046182
91	0xbe962fd8	-0.29333377
92	0x3f10516e	0.5637425
93	0xbdba9a8f	-0.09111511
94	0xbf9158b0	-1.135519
95	0xbcdded5f	-0.027090726
96	0x3e608fe4	0.2192989
97	0xbeaaecbd	-0.33383742
98	0x3f189e6e	0.59616745
99	0xbf99fa64	-1.2029538
100	0x3b523e98	0.0032080766
101	0x3e68a706	0.22719964
102	0xbddca14e	-0.10772954
103	0x3f1d4569	0.61434036
104	0x3ec52e09	0.38511685
105	0x3f8f83ad	1.1212059
106	0x3e867a8b	0.26265368
107	0xbe6fbec1	-0.2341261
108	0xbf6d0b44	-0.92595315
109	0x3e9a625d	0.3015317
110	0x3e8a7a19	0.27046278
111	0xbec74222	-0.38917643
112	0x3e9b0b5c	0.30282104
113	0x3f57221b	0.84036416
114	0xbeb7613a	-0.35816365
115	0x3ef0963d	0.46989623
116	0x3e1dba3b	0.15403073
117	0xbef86c8f	-0.48520324
118	0xbf72d384	-0.94854
119	0x3f958030	1.1679745
120	0xbf97f6fe	-1.1872251
121	0x3d5b220b	0.053499263
122	0xbf92255d	-1.1417652
123	0x3ee85cf8	0.4538343
124	0x3e87241f	0.26394746
125	0xbf77ad7f	-0.9674911
126	0x3eef1f8e	0.46703762
127	0xbe8b1b18	-0.27169108
128	0xbbc0adf0	-0.00588011
129	0x3c70ca4c	0.014696669
130	0xbccd6057	-0.025070352
131	0x3d8d9b9f	0.06914448
132	0xbd9aa76e	-0.07551466
133	0x3de50ea3	0.11184432
134	0x3d9c61d5	0.076358475
135	0xbcbe39c7	-0.02322091
136	0xbdc3c7a5	-0.095595635
137	0x3cf53f7a	0.029937495
138	0xbe10cee1	-0.14141418
139	0xbc1163e8	-0.008873917
140	0xbc49f6e0	-0.012326926
141	0x3dfebdaf	0.12438523
142	0x3d176f56	0.036971413
143	0xbd687a68	-0.05675736
144	0xbd18cfef	-0.037307676
145	0xbe44cca5	-0.1921869
146	0xbdf6b23b	-0.120457135
147	0xbd95c9fc	-0.07313916
148	0x3e36618c	0.17810649
149	0x3cee18f7	0.029064639
150	0xbe017e21	-0.1264577
151	0x3c840868	0.01611729
152	0xbe062774	-0.13100988
153	0x3e0a29ef	0.13492559
154	0x3d302b2e	0.04300993
155	0xbd830897	-0.06398123
156	0xbd651262	-0.055925734
157	0x3d883c68	0.066521466
158	0x3cb797c7	0.02241124
159	0x3e0d0d53	0.13774614
160	0xbcf91ad6	-0.030408304
161	0xbcc56a30	-0.024098486
162	0x3dba6629	0.09101517
163	0x3de6c67a	0.11268325
164	0x3d9e24a3	0.07721832
165	0xbc989138	-0.018623933
166	0xbdddf256	-0.108372375
167	0xbd49b237	-0.049242225
168	0xbc8c2ad7	-0.017110271
169	0x3d62f31c	0.05540763
170	0x3d9e0b29	0.077169724
171	0x3e06f92f	0.13180993
172	0x3d0f7c0a	0.035030402
173	0xbdd452fd	-0.10367391
174	0xbdb0ed26	-0.086389825
175	0x3d96e27f	0.073674195
176	0xbe00f12d	-0.12592001
177	0x3d6012ae	0.054705314
178	0x3c241912	0.010015743
179	0xbe0d507d	-0.13800235
180	0x3dfa800e	0.12231456
181	0xbc95daf0	-0.018292874
182	0x3df5cb2d	0.12001643
183	0x3d30567d	0.04305123
184	0x3dc372c1	0.09543372
185	0xbd1854c7	-0.037190225
186	0x3df64d38	0.12026447
187	0x3d5887b5	0.052863795
188	0xbdf6a73d	-0.12043617
189	0x3cce8b1b	0.025212815
190	0xbc2422a9	-0.010018029
191	0xbd065a97	-0.032801237

gru.weight_ih_l1 f4 [192, 64]
0	0x3e8fd522	0.28092295
1	0x3e973ae0	0.29537106
2	0x3d0e1873	0.034691285
3	0x3e476c38	0.19474876
4	0x3db28922	0.08717562
5	0xbd29acfc	-0.041424736
6	0x3ee6c2ac	0.45070398
7	0xbd7cc73b	-0.06171344
8	0xbd71d6a1	-0.059042577
9	0xbed2189a	-0.41034395
10	0x3e5467fd	0.20742793
11	0xbf066462	-0.5249692
12	0xbd4eff4d	-0.050536443
13	0xbed017c8	-0.40643144
14	0xbddaa0b3	-0.10675182
15	0xbe8307f3	-0.25592002
16	0x3de9651a	0.11396237
17	0x3d87f3a5	0.066382684
18	0xbe863695	-0.26213518
19	0xbdc86d4f	-0.09786474
20	0x3c25f78a	0.010129819
21	0xbeba9925	-0.36444965
22	0x3dd0568c	0.101727575
23	0xbd7a5daa	-0.06112448
24	0xbe071937	-0.13193212
25	0xbcf5ee25	-0.030020783
26	0x3e0d4234	0.13794786
27	0x3e0695ad	0.13143034
28	0xbe11422f	-0.14185403
29	0xbe0ac31b	-0.1355099
30	0xbeb0569e	-0.34441084
31	0x3e10adb2	0.1412876
32	0xbd89398e	-0.06700431
33	0x3e57eea1	0.21087123
34	0xbe4dd4cb	-0.20100705
35	0xbe6f42d5	-0.23365338
36	0xbc9eab46	-0.019368779
37	0x3e7d8e3c	0.2476129
38	0xbe3595c4	-0.17732912
39	0x3eb228d0	0.34796762
40	0xbdffad87	-0.124842696
41	0x3e21d201	0.15802766
42	0x3e8bc2c5	0.27297035
43	0x3b8f7600	0.0043780804
44	0x3eb4b81b	0.3529671
45	0xbd529f46	-0.051421426
46	0xbed7eadd	-0.42171374
47	0xbdb806af	-0.0898565
48	0xbd215f63	-0.03939761
49	0xbe80e4c7	-0.25174543
50	0xbe24d902	-0.16098407
51	0xbdf9de29	-0.12200577
52	0x3e968cf7	0.29404423
53	0x3d91e002	0.07122804
54	0x3eddc1cf	0.43311927
55	0x3eee2fc7	0.46520826
56	0x3e15d848	0.14633286
57	0x3f0a68ed	0.54066354
58	0x3eaa0c61	0.3321257
59	0xbe8e97e3	-0.27850255
60	0xbedc97ad	-0.4308447
61	0xbe89525f	-0.26820657
62	0xbdd84df6	-0.10561745
63	0xbe7d697b	-0.24747269
64	0xbea25dd1	-0.317122
65	0x3d807070	0.06271446
66	0x3ee985c7	0.45609877
67	0x3e58c4ea	0.21168867
68	0x3e502b3d	0.20328994
69	0x3ec7ec69	0.39047554
70	0xbeef41ad	-0.46729794
71	0x3dee0af0	0.1162318
72	0xbe82aa37	-0.2552049
73	0x3e6c25b0	0.23061252
74	0xbe706709	-0.23476805
75	0xbe00b371	-0.12568451
76	0x3d879e83	0.066220306
77	0x3eb89c75	0.36056867
78	0xbeb6aaa1	-0.35677055
79	0xbd877909	-0.066148825
80	0x3edb1edf	0.4279699
81	0xbcb7ea38	-0.022450551
82	0x3ef04bcc	0.46932828
83	0xbe497969	-0.1967522
84	0x3e92ded2	0.28685623
85	0xbeddaf6a	-0.43297893
86	0xbe8eae27	-0.27867243
87	0xbe276a30	-0.16349101
88	0xbe905b88	-0.28194833
89	0x3e2df4af	0.1698787
90	0xbe14cea9	-0.1453196
91	0xbe2e8b7f	-0.17045401
92	0x3f27a637	0.65488
93	0x3e4c3df1	0.19945504
94	0xbef94a82	-0.48689657
95	0x3f08f939	0.53505284
96	0xbeb95388	-0.36196542
97	0x3b83fad6	0.0040277047
98	0x3dbd5d2d	0.092462875
99	0xbe71a9c6	-0.2359992
100	0x3e6f3204	0.23358923
101	0xbeced587	-0.40397283
102	0xbe1d027c	-0.15332979
103	0xbf9cb508	-1.2242746
104	0xbed1248d	-0.408482
105	0xbf085a41	-0.53262717
106	0x3ba2e58b	0.0049712113
107	0x3e32b7cd	0.17452927
108	0x3faca057	1.3486432
109	0x3d8d69a1	0.06904913
110	0x3e69089d	0.22757192
111	0xbe362688	-0.17788136
112	0xbe26bf79	-0.16283979
113	0x3f4b003e	0.79297245
114	0xbe998b27	-0.29988977
115	0xbf02c6b7	-0.51084465
116	0x3dd28bfe	0.10280608
117	0xbebe7020	-0.3719492
118	0x3e2d0ab3	0.16898613
119	0xbf0917a3	-0.5355169
120	0xbdf3d0f1	-0.11905087
121	0x3ec253af	0.3795447
122	0x3ebdc8a1	0.3706713
123	0x3e7f532f	0.24934076
124	0x3e417d51	0.1889546
125	0xbf06e2b1	-0.52689654
126	0xbd51a1a3	-0.05117954
127	0xbe22cf79	-0.15899457
128	0x3e2763f2	0.1634672
129	0x3e5ec615	0.2175525
130	0x3deff68e	0.117169484
131	0x3e153e8d	0.14574642
132	0xbd1d6800	-0.03842926
133	0xbe880e31	-0.26573327
134	0x3e93eb7d	0.288906
135	0xbf1e0699	-0.6172882
136	0x3d0e3bc1	0.034724955
137	0xbdcbec56	-0.09957187
138	0x3e0457ab	0.12924068
139	0xbe02df6d	-0.12780543
140	0xbe3765fe	-0.1791
141	0xbf51bf80	-0.8193283
142	0xbe3c8639	-0.18410577
143	0xbe0940d7	-0.1340364
144	0x3d97a2d1	0.07404102
145	0xbde17b75	-0.11009876
146	0x3cf60adc	0.030034475
147	0x3e3daad5	0.18522198
148	0xbf01c7e8	-0.5069566
149	0xbdda320c	-0.10654077
150	0x3e7422d4	0.23841411
151	0xbe8c7f58	-0.27440906
152	0x3e86bdb5	0.2631661
153	0xbe37c1c9	-0.17945017
154	0xbea2f09a	-0.3182419
155	0x3e19a6fb	0.15005104
156	0xbdda06ad	-0.106458046
157	0x3d876e52	0.06612839
158	0xbea48e35	-0.32139745
159	0xbe0eee98	-0.13958204
160	0xb9832b81	-0.0002501868
161	0x3f15a2cb	0.5845153
162	0xbf21c2bd	-0.6318777
163	0xbdbcfe11	-0.09228147
164	0xbdb01285	-0.08597282
165	0x3d532a14	0.0515538
166	0xbe3f626b	-0.18689887
167	0x3e603b98	0.21897733
168	0xbeef525e	-0.4674253
169	0x3f08cc51	0.5343676
170	0xbe616721	-0.22011997
171	0xbe6ac697	-0.22927319
172	0x3eb352f5	0.3502423
173	0x3df8235e	0.12116121
174	0x3e516858	0.2044996
175	0x3da55178	0.080721796
176	0x3f0086da	0.5020577
177	0xbcf4ecf0	-0.029898137
178	0xbe344aab	-0.17606609
179	0xbe542121	-0.20715763
180	0x3e5d4f67	0.21612321
181	0x3ed9b38f	0.42519805
182	0x3e988afa	0.2979353
183	0x3f0cff39	0.5507694
184	0x3ea226c0	0.3167019
185	0x3d7f3c51	0.06231338
186	0x3d890767	0.06690865
187	0x3edc6fd0	0.43054056
188	0x3e4993ef	0.19685338
189	0xbcb5679c	-0.022144131
190	0xbe066973	-0.13126163
191	0x3dd89ec7	0.105771594
192	0xbef36327	-0.47536585
193	0xbebc17b9	-0.3673685
194	0x3e8424b0	0.2580924
195	0xbf7e9e37	-0.99460167
196	0xbf4a4c9f	-0.79023165
197	0x3d67a27c	0.05655144
198	0x3eddc87b	0.43317017
199	0x3df853c9	0.12125356
200	0xbf023c87	-0.5087361
201	0x3c194c73	0.009356606
202	0x3ba88430	0.005142711
203	0x3f45c539	0.7725406
204	0xbde42d03	-0.11141398
205	0x3d0d630b	0.034518283
206	0x3ecd22c2	0.4006558
207	0x3e260224	0.16211754
208	0xbf39baa4	-0.72550416
209	0xbe9a17e2	-0.30096346
210	0x3e8615a4	0.26188385
211	0x3d908802	0.070571914
212	0xbc8bd904	-0.017071255
213	0x3f6b5be8	0.9193711
214	0x3f3ed04f	0.74536604
215	0x3dda38d1	0.10655368
216	0x3e9c0db9	0.3047922
217	0xbebc7942	-0.36811262
218	0xbde01a6c	-0.109425396
219	0x3f0bae3b	0.5456273
220	0x3eb5155a	0.35367852
221	0x3db10678	0.08643812
222	0x3f2f8514	0.68562436
223	0xbec5225a	-0.3850277
224	0xbe3b04b1	-0.18263508
225	0x3e3c979f	0.18417214
226	0xbe595cd6	-0.2122682
227	0x3f1d76e9	0.6150957
228	0xbeb79813	-0.3585821
229	0xbf1c9f1c	-0.6118028
230	0x3e916a07	0.28401205
231	0xbdba3514	-0.09092155
232	0x3e5dc940	0.21658802
233	0xbec0eee1	-0.3768225
234	0xbd591ad1	-0.05300409
235	0xbf0079f2	-0.50186074
236	0xbeee141a	-0.4649971
237	0xbd4cb367	-0.04997578
238	0x3e0bd906	0.13657007
239	0x3f411dc6	0.75436056
240	0xbe057b4f	-0.1303532
241	0x3e095e3b	0.13414852
242	0x3f78f0ca	0.97242415
243	0xbd571519	-0.052510355
244	0xbf4047c3	-0.751095
245	0x3e97aa4c	0.29622114
246	0xbf015c88	-0.50531816
247	0xbe484993	-0.19559316
248	0xbf09341d	-0.53595144
249	0xbe33c084	-0.17553908
250	0xbeac9cf6	-0.33713502
251	0xbe79cdae	-0.24394867
252	0x3de626cb	0.11237868
253	0x3f2ae320	0.66752815
254	0xbd6694e7	-0.056294348
255	0x3f8d389b	1.10329

gru.weight_hh_l1 f4 [192, 64]
0	0x3e93ab7b	0.28841767
1	0xbf019e50	-0.5063219
2	0xbf049d4f	-0.51802534
3	0xbded7aef	-0.11595713
4	0xbe63c8dc	-0.2224459
5	0xbea2eb38	-0.31820083
6	0x3eafb254	0.3431574
7	0xbd88ca23	-0.066791795
8	0xbe2cdc7e	-0.16880986
9	0xbf259c4e	-0.6469163
10	0xbd93a098	-0.07208365
11	0xbe89fa84	-0.2694894
12	0x3f169db0	0.5883436
13	0xbf03b023	-0.5144064
14	0x3f295529	0.6614557
15	0x3f025752	0.5091449
16	0xbec62d86	-0.38706607
17	0xbf0797e9	-0.5296617
18	0x3e91fea2	0.28514582
19	0x3de0034e	0.1093813
20	0xbe956c4e	-0.29184192
21	0x3e580634	0.21096116
22	0x3e71bd5c	0.23607391
23	0xbe8b0034	-0.27148592
24	0xbdf10533	-0.1176857
25	0xbbaa2e3c	-0.0051935
26	0x3e7653b1	0.24055363
27	0x3c880e2d	0.016608322
28	0xbe5ef5b8	-0.21773422
29	0xbe09aec5	-0.13445576
30	0xbe747b01	-0.23875047
31	0x3e44e266	0.19226989
32	0xbdb4579a	-0.08805771
33	0xbe08a352	-0.13343552
34	0xbe3ac42f	-0.182389
35	0x3eab8a03	0.33503732
36	0x3eaffbe5	0.34371868
37	0xbe07ff8a	-0.13281074
38	0xbec30650	-0.38090754
39	0xbe9c33ee	-0.3050837
40	0x3c4c840f	0.012482657
41	0xbd746b82	-0.05967284
42	0x3e17c857	0.14822517
43	0x3dfbf492	0.123025075
44	0x3ed9322b	0.42421088
45	0x3c0b048b	0.00848497
46	0x3c7b4c66	0.015338039
47	0xbd9bcd48	-0.07607514
48	0xbeb4f81e	-0.35345548
49	0xbf14b9cc	-0.58096004
50	0x3cf26963	0.029591268
51	0x3dca541f	0.09879326
52	0xbf6d5072	-0.92700875
53	0xbf127bf6	-0.572204
54	0xbd27b10f	-0.04094034
55	0xbf34471c	-0.70421004
56	0x3e9eadd9	0.3099201
57	0x3d136bae	0.035991363
58	0x3f24c5a8	0.643641
59	0xbe876b7c	-0.26449192
60	0x3da19ecd	0.07891617
61	0xbd923134	-0.07138291
62	0x3e77e52f	0.2420852
63	0x3d747c95	0.059689123
64	0xbe449c16	-0.19200167
65	0x3eefc2a6	0.46828192
66	0xbd55366e	-0.05205386
67	0xbed2d7ef	-0.4118037
68	0x3e6f615f	0.23376988
69	0x3e3405b1	0.17580296
70	0xbecf99cc	-0.40547025
71	0xbe731870	-0.23739791
72	0x3dd44d65	0.10366324
73	0x3d5bfe32	0.053709216
74	0x3f09a88b	0.537728
75	0x3e61e57f	0.22060202
76	0xbe889cd8	-0.26682162
77	0x3d9db7dc	0.07701084
78	0x3e74fb37	0.23923956
79	0x3e835b04	0.25655377
80	0x3e3b921e	0.18317458
81	0xbe170cb0	-0.14750934
82	0x3d795d09	0.06087974
83	0xbde45299	-0.11148567
84	0xbe103e98	-0.14086378
85	0xbd12444c	-0.035709664
86	0x3f021a37	0.5082125
87	0xbe35f1d4	-0.17768031
88	0xbd9022a1	-0.07037855
89	0xbbd3d27d	-0.006464301
90	0x3e37a409	0.17933668
91	0x3f1b5f96	0.6069273
92	0xbe1ab2b7	-0.15107237
93	0xbe7f1dd1	-0.24913718
94	0xbdd23a97	-0.102650814
95	0x3a3c0e57	0.00071737677
96	0x3dc54073	0.09631433
97	0xbd16289b	-0.03665982
98	0x3e1ba1ea	0.15198484
99	0xbe18bbce	-0.14915392
100	0xbd88fd57	-0.06688946
101	0x3e3eb684	0.18624312
102	0xbcb1f482	-0.021723036
103	0x3df1112e	0.11770855
104	0x3df9737e	0.121802315
105	0x3e67cefb	0.2263755
106	0x3d8be3d1	0.06830562
107	0xbdc2db13	-0.09514441
108	0xbdf4ec6a	-0.11959155
109	0xbc4006c2	-0.011720361
110	0xbedc96bc	-0.4308375
111	0x3e04d1ad	0.1297061
112	0xbe5b604b	-0.21423452
113	0x3f432f44	0.76243997
114	0xbd7b01dd	-0.061281074
115	0xbdcdc3d1	-0.10047115
116	0xbe84da8e	-0.25947994
117	0x3e9486fc	0.29009235
118	0xbe1b171b	-0.15145533
119	0x3e4ab195	0.19794305
120	0xbdc277c5	-0.094955005
121	0x3dc4525d	0.09586022
122	0x3eb4ac9c	0.3528794
123	0x3e3b1f80	0.18273735
124	0xbe2db6e3	-0.16964297
125	0xbe93dbac	-0.28878534
126	0xbc9eb19b	-0.019371798
127	0xbde56453	-0.11200776
128	0xbf5045ec	-0.8135669
129	0x3f1a1a33	0.60196227
130	0xbebe2314	-0.37136137
131	0x3ecca113	0.3996664
132	0x3e5a38aa	0.21310678
133	0xbe16c5e0	-0.14723921
134	0xbe4de290	-0.20105958
135	0x3f05e213	0.52298087
136	0xbd8013ab	-0.06253751
137	0xbdaaf6dc	-0.08347866
138	0xbe5ea5f7	-0.21742998
139	0xbf130ccd	-0.5744141
140	0x3e570680	0.20998573
141	0xbe0e1033	-0.13873367
142	0x3f27a1e0	0.65481377
143	0x3a9971ba	0.0011706867
144	0x3e4bc020	0.19897509
145	0xbeb7cb51	-0.35897306
146	0xbe976bc9	-0.2957442
147	0xba9cc2a4	-0.0011959863
148	0x3e85e15e	0.26148504
149	0x3f0d5fce	0.5522431
150	0xbe035827	-0.12826596
151	0x3d9a6a82	0.07539846
152	0xbce04591	-0.027376922
153	0x3e4d5b8c	0.20054454
154	0xbeb879bf	-0.36030385
155	0x3ced28da	0.028950144
156	0x3e784d38	0.24248207
157	0xbe7e9cff	-0.24864577
158	0xbf2964bd	-0.6616934
159	0x3eba54b2	0.36392742
160	0xbdff0fa8	-0.12454158
161	0xbcc5f2b1	-0.024163576
162	0x3e04818b	0.12940042
163	0x3e1f1624	0.1553579
164	0x3f059d2d	0.52192956
165	0xbd337c4b	-0.043819707
166	0x3e05694e	0.13028452
167	0x3e5cb074	0.21551687
168	0x3e588d96	0.21147761
169	0x3f1ed6e1	0.6204663
170	0xbf293b53	-0.66106147
171	0xbdb7b5f6	-0.08970253
172	0xbe89d0a9	-0.26917008
173	0xbbaff58f	-0.005369849
174	0xbe991ef4	-0.29906428
175	0x3ddbb8e5	0.10728625
176	0x3ebc9344	0.36831105
177	0xbe623913	-0.22092085
178	0xbeebb950	-0.4603982
179	0x3e19621f	0.14978836
180	0x3eaea681	0.34111407
181	0xbc66a8bf	-0.014078318
182	0x3e4686d0	0.19387364
183	0x3e8851a1	0.26624778
184	0xbef0e0ba	-0.47046453
185	0xbe0ee750	-0.13955426
186	0x3f0e39d3	0.5555698
187	0x3e496604	0.19667822
188	0x3e5a8a70	0.21341872
189	0xbd4d4270	-0.050112188
190	0xbf28766b	-0.6580569
191	0xbdefae17	-0.11703127
192	0xbe73102b	-0.23736636
193	0x3ee52a3d	0.44758788
194	0x3e4dbec0	0.20092297
195	0x3e06e332	0.13172606
196	0xbed7ce3e	-0.42149538
197	0xbe740ecf	-0.23833774
198	0x3f750e13	0.957246
199	0x3ef20ac2	0.47273833
200	0x3e6f2373	0.23353367
201	0xbf1c3aed	-0.61027414
202	0x3e15e3f3	0.14637737
203	0x3e90fdbd	0.28318587
204	0x3d656ab9	0.05600998
205	0xbe28134d	-0.16413613
206	0x3f427bc3	0.75970095
207	0x3d34a997	0.044107046
208	0xbebed476	-0.3727147
209	0x3d6f3f31	0.058409873
210	0x3c83cecd	0.016089821
211	0xbe6d2f5b	-0.23162596
212	0x3f0b8f38	0.5451541
213	0x3d64b2b9	0.055834506
214	0x3e186ae4	0.14884526
215	0xbdb52635	-0.08845178
216	0xbe0ae697	-0.13564526
217	0x3e5b11c5	0.21393497
218	0x3e2727c6	0.16323766
219	0x3f022bd1	0.5084811
220	0xbecb0860	-0.39654827
221	0x3f8a6900	1.0813293
222	0xbcaeb175	-0.021324852
223	0xbdc0a48d	-0.094063856
224	0xbd4f562d	-0.050619293
225	0xbd81744b	-0.06321009
226	0x3e45606a	0.1927506
227	0x3cd6a09d	0.026199633
228	0x3c34f2e8	0.0110442415
229	0xbda41cb0	-0.08013284
230	0x3e8f44d5	0.27982202
231	0xbe821638	-0.25407577
232	0xbf59c7af	-0.8507032
233	0xbe5322d1	-0.2061875
234	0xbf245c2c	-0.64203143
235	0x3e2e9c10	0.1705172
236	0x3f2d7b94	0.6776669
237	0xbe97e92b	-0.2967008
238	0x3f1ddca5	0.616648
239	0xbef10705	-0.47075668
240	0xbd1e364d	-0.038626004
241	0x3e98b4fb	0.29825577
242	0x3ed1d3d6	0.4098193
243	0xbe50fb18	-0.20408285
244	0x3e811dc1	0.25218013
245	0xbebc194e	-0.36738056
246	0xbf23e8d5	-0.6402715
247	0x3eb6f10a	0.35730773
248	0x3e16313e	0.14667222
249	0xbe365783	-0.1780682
250	0x3d8b854d	0.068125345
251	0xbe040af2	-0.128948
252	0xbe38e485	-0.18055923
253	0xbc929b1d	-0.01789623
254	0xbe5d7d96	-0.21629938
255	0xbde65e79	-0.11248488

gru.bias_ih_l1 f4 [192]
0	0x3e25b946	0.16183957
1	0x3d6fc23a	0.05853484
2	0xbd8fdd17	-0.070245914
3	0xbe98b6bf	-0.29826924
4	0xbd572be4	-0.05253209
5	0x3ca35ef2	0.019942734
6	0xbe880a44	-0.26570332
7	0xbc539fda	-0.01291653
8	0x3e6f7328	0.23383772
9	0xbe92cf73	-0.28673896
10	0xbd7bc94f	-0.06147128
11	0xbd620194	-0.055177286
12	0xbe2f97dd	-0.17147775
13	0xbd2c3d3b	-0.04205058
14	0x3ddb73fb	0.10715481
15	0xbe1559ac	-0.14584988
16	0xbdac1f4a	-0.084044054
17	0xbbd6937d	-0.0065483437
18	0x3e436404	0.19081122
19	0x3b04500c	0.0020189313
20	0x3e2cb654	0.16866428
21	0x3deed4c5	0.11661676
22	0xbea73089	-0.32654217
23	0x3df04e33	0.11733665
24	0x3dab79c4	0.08372834
25	0x3f2f9deb	0.6860034
26	0xbe32e029	-0.17468323
27	0x3e6dbd2d	0.23216696
28	0x3e7f61e7	0.2493969
29	0x3dd81ae4	0.10552004
30	0xbe023bfc	-0.12718195
31	0x3e0ea4af	0.1393001
32	0x3e47faa8	0.19529212
33	0x3d2e0f2a	0.04249493
34	0x3e04e5ed	0.12978335
35	0x3d9eed8a	0.07760151
36	0xbe522d14	-0.20525008
37	0xbdb0d0d7	-0.08633583
38	0xbe1f9f7c	-0.15588182
39	0x3e04176d	0.12899561
40	0xbe2f3449	-0.17109789
41	0x3e6392fa	0.22224036
42	0x3ed48a39	0.41511706
43	0xbcf1ddfd	-0.029524798
44	0xbd808996	-0.062762424
45	0xb9826466	-0.00024870335
46	0x3bcf8a30	0.006333612
47	0x3bfe7de1	0.007766471
48	0xbe0ed0a0	-0.13946772
49	0xbe6fe426	-0.23426875
50	0x3d437f7f	0.04772901
51	0xbd0e3e16	-0.03472718
52	0x3e67f73b	0.22652905
53	0x3e30f2c7	0.17280112
54	0x3df51328	0.119665444
55	0xbdd75c55	-0.10515658
56	0xbd0dea30	-0.034647167
57	0x3dddd442	0.108315006
58	0xbe337393	-0.17524557
59	0x3dd92d66	0.10604362
60	0x3d8de5dd	0.069286086
61	0xbe84315d	-0.2581891
62	0xbe68ca35	-0.22733386
63	0x3d953c77	0.072869234
64	0x3ea22bcc	0.3167404
65	0x3f38503f	0.71997446
66	0x3f6f6caa	0.93525183
67	0x3e85a4ff	0.26102445
68	0x3e530f5a	0.20611325
69	0x3e877496	0.26456136
70	0x3f3fc139	0.7490421
71	0x3d0b2905	0.033974666
72	0x3eb698bc	0.35663402
73	0x3c6c8a63	0.014437291
74	0xbda082e9	-0.07837469
75	0x3f03a6e0	0.51426506
76	0x3d5250ad	0.05134647
77	0x3e923dd1	0.28562787
78	0x3f1126c4	0.56699777
79	0x3db116ae	0.08646904
80	0x3e7ffe2e	0.24999306
81	0x3f144b79	0.5792766
82	0x3dac4707	0.08411985
83	0x3dcab303	0.09897425
84	0x3f29e95c	0.66371703
85	0x3d96be98	0.073605716
86	0x3edc92ca	0.4308074
87	0x3dc16c87	0.09444528
88	0x3c8bb5e2	0.017054502
89	0x3f01a6ca	0.50645125
90	0x3ec4d62d	0.38444653
91	0x3d76c4da	0.060246326
92	0x3eb95140	0.361948
93	0x3ea837bb	0.3285502
94	0x3d84d854	0.06486574
95	0x3e0725ea	0.13198057
96	0x3dfa395d	0.122179724
97	0x3e533aee	0.20627949
98	0x3e3c21ba	0.1837224
99	0xbe1615c9	-0.14656748
100	0x3e566722	0.2093778
101	0x3eac67a2	0.33672816
102	0x3e8d800d	0.27636757
103	0x3d20ddc6	0.039274
104	0x3e9c8cf6	0.30576295
105	0x3e4e67d9	0.20156802
106	0x3e847fc7	0.25878736
107	0x3bfd9f09	0.0077399057
108	0x3da791ce	0.08182107
109	0xbd7bae43	-0.061445486
110	0x3edb4314	0.42824614
111	0x3e053e16	0.13011965
112	0x3e9120e6	0.28345412
113	0x3d4dbcf0	0.050229013
114	0x3e8377cf	0.25677344
115	0x3e5ea4fe	0.21742627
116	0x3ec70a05	0.38874832
117	0x3eb9469e	0.3618669
118	0x3e01d8ad	0.12680312
119	0x3e1a792b	0.15085284
120	0x3ea22815	0.31671205
121	0x3d662511	0.056187693
122	0x3e349558	0.17635095
123	0x3b10cd08	0.0022094864
124	0x3ebe1157	0.37122604
125	0x3e346ed3	0.17620401
126	0x3e9614ef	0.29312846
127	0x3d9eab01	0.0774746
128	0xbe954e54	-0.29161322
129	0x3d4ae43c	0.049534068
130	0xbca96eac	-0.020682655
131	0xbeb160bc	-0.34644115
132	0xbe30a4ea	-0.1725041
133	0xbdec676e	-0.11543165
134	0xbe9fcbdf	-0.3121023
135	0xbd78e8b1	-0.060768787
136	0xbe173727	-0.14767133
137	0xbdabc371	-0.08386887
138	0xbd7ea6af	-0.06217068
139	0x3d56e66c	0.05246584
140	0x3d593a87	0.05303433
141	0xbe249e97	-0.16076122
142	0xbe1346e6	-0.14382514
143	0xbee79db4	-0.45237505
144	0xbc57aa4c	-0.0131631605
145	0x3e891bff	0.26779172
146	0x3ae9b4db	0.0017830388
147	0x3ce827b8	0.028339252
148	0xbe60c49a	-0.21949998
149	0x3d8d64ea	0.069040135
150	0xbd3d743f	-0.04625344
151	0x3dd18ffa	0.102325395
152	0x3d3306e4	0.043707743
153	0x3d4ae109	0.049531016
154	0xbcd7cc29	-0.026342468
155	0x3df395b2	0.118937865
156	0x3d93dac0	0.072194576
157	0xbdfcf2c5	-0.12350992
158	0xbe45363e	-0.19258973
159	0xbc901ba0	-0.017591298
160	0xbe2bcfca	-0.16778484
161	0x3d9620c3	0.073304676
162	0x3ddaec3e	0.10689591
163	0xbc98cd25	-0.018652508
164	0x3df034dc	0.11728832
165	0xbc81ee69	-0.015860753
166	0xbe7be99b	-0.24600832
167	0x3d4f179e	0.050559632
168	0xbc834529	-0.01602419
169	0xbd464f32	-0.04841537
170	0x3efbf9c0	0.49213982
171	0x3e454940	0.19266224
172	0xbc3551b3	-0.011066842
173	0xbee3564b	-0.44401774
174	0xbec1baf2	-0.3783794
175	0x3e902968	0.2815659
176	0xbee101b1	-0.43946603
177	0x3e05a836	0.13052449
178	0xbd3717f4	-0.044700578
179	0xbdce3ef8	-0.10070604
180	0xbd9a2959	-0.07527418
181	0x3d31e432	0.043430515
182	0x3beba295	0.007191012
183	0x3bc6ec06	0.0060706167
184	0x3d9fe0aa	0.07806523
185	0x3e72500d	0.2366335
186	0xbde7db7c	-0.1132116
187	0x3e5af904	0.21384054
188	0x3db129a4	0.086505204
189	0x3bf84787	0.007576886
190	0x3e242ce6	0.16032752
191	0xbe6ac40c	-0.22926348

gru.bias_hh_l1 f4 [192]
0	0x3d52a2c7	0.051424768
1	0xbd96f7b4	-0.07371464
2	0xbda66dd0	-0.08126414
3	0xbde704dd	-0.112802245
4	0xbde82398	-0.11334914
5	0xbe0f920f	-0.1402056
6	0xbe5c87ca	-0.21536174
7	0x3ca5870d	0.020205999
8	0x3e32bafb	0.1745414
9	0xbebcf72a	-0.3690732
10	0xbdd1121b	-0.102085315
11	0xbd5d1245	-0.0539725
12	0x3c9dbc3d	0.019254798
13	0xbc23a78f	-0.00998868
14	0xbbe852bf	-0.007089942
15	0xbe07fae3	-0.132793
16	0x3da25ece	0.07928239
17	0x3d9b04bb	0.07569262
18	0x3e2bd95d	0.16782136
19	0x3d70bf54	0.058776215
20	0x3e4fd1b8	0.20294845
21	0xbd7158db	-0.05892263
22	0xbf0b5b29	-0.54435974
23	0x3ddb789f	0.10716366
24	0x3e157f1b	0.14599268
25	0x3f2d1335	0.6760743
26	0xbe691ff6	-0.22766098
27	0x3df0023f	0.117191784
28	0x3e353d8f	0.17699264
29	0x3e425a1c	0.18979686
30	0xbd295b31	-0.041346733
31	0x3e96b356	0.29433697
32	0x3eb2acc1	0.34897426
33	0x3dc6a8b8	0.09700149
34	0x3e080aa8	0.13285315
35	0x3de661a3	0.112490915
36	0xbe6d9316	-0.2320064
37	0x3df49e02	0.119442
38	0xbe7f7c94	-0.24949867
39	0x3e4a1995	0.19736321
40	0xbebd442c	-0.36966074
41	0x3d4933c4	0.049121633
42	0x3ea6296c	0.32453477
43	0xbe808d5a	-0.25107843
44	0xbd914049	-0.070923395
45	0x3e0c0d45	0.13676937
46	0x3c4fb571	0.012677536
47	0xbc93dfed	-0.018051112
48	0xbe3d9e5c	-0.1851744
49	0xbe2a8ecc	-0.16656035
50	0xbdcd3f56	-0.10021846
51	0x3e09e186	0.13464937
52	0x3e32d0dd	0.17462488
53	0x3d184987	0.037179496
54	0x3e1a4e23	0.1506887
55	0xbd60c8ff	-0.054879185
56	0xbd6296bd	-0.055319536
57	0xbca2c917	-0.019871278
58	0x3c2a230e	0.010384334
59	0x3e316227	0.17322598
60	0x3e13bdb1	0.1442783
61	0xbe581a02	-0.21103671
62	0xbe88ae56	-0.26695508
63	0xbd03d7d1	-0.03218824
64	0x3ee79e82	0.4523812
65	0x3f4defb5	0.8044389
66	0x3f479d13	0.7797405
67	0x3e96c01d	0.29443446
68	0x3e40953e	0.18806931
69	0x3ea29948	0.3175757
70	0x3f33912c	0.7014339
71	0x3d1e4f7f	0.038650032
72	0x3e8e158c	0.27750814
73	0xbd315c8a	-0.043301143
74	0xbd91174d	-0.070845224
75	0x3ecb6afe	0.39730066
76	0x3e4e0956	0.20120749
77	0x3e9d6a8e	0.30745357
78	0x3f14605e	0.57959545
79	0x3d724c0e	0.059154563
80	0x3e66ef9d	0.22552343
81	0x3f1d6681	0.61484534
82	0x3e9da246	0.30787867
83	0x3c004769	0.0078295255
84	0x3f1340bc	0.5752065
85	0x3e9374ca	0.2880004
86	0x3ea58761	0.32329848
87	0x3e31d735	0.17367251
88	0x3d46a60f	0.04849821
89	0x3f297131	0.6618834
90	0x3e5c7433	0.21528701
91	0x3e00e123	0.12585883
92	0x3e3c751f	0.18404053
93	0x3e4a9c06	0.1978608
94	0xbdcdcb58	-0.1004855
95	0x3e155466	0.14582977
96	0x3e7c802d	0.2465827
97	0x3e5cddd7	0.21569
98	0x3da2691c	0.07930204
99	0xbd78057a	-0.060552098
100	0x3e2a76eb	0.16646926
101	0x3e92d0dd	0.28674975
102	0x3ebe2571	0.3713794
103	0x3e5e962d	0.21736975
104	0x3e9b7604	0.30363476
105	0x3e984841	0.29742625
106	0x3ec39f58	0.38207507
107	0x3d968b30	0.07350767
108	0x3e86dca9	0.26340225
109	0x3d3fa092	0.04678399
110	0x3efcbaac	0.4936117
111	0x3cac0adb	0.02100127
112	0x3e86ee03	0.26353464
113	0x3d90da55	0.070728935
114	0x3eea73b8	0.4579141
115	0x3e88565f	0.26628396
116	0x3f12eb74	0.5739052
117	0x3e815ff9	0.25268534
118	0x3e180273	0.14844684
119	0x3e607a30	0.21921611
120	0x3eb7f897	0.35931846
121	0x3e8cb6aa	0.27483112
122	0x3e85f79c	0.26165473
123	0x3b872d1c	0.0041252505
124	0x3eaf9255	0.3429133
125	0x3e566ff5	0.20941146
126	0x3eef232b	0.4670652
127	0x3e07e9cd	0.13272782
128	0x3d163657	0.036672916
129	0x3d958133	0.073000334
130	0x3d05c173	0.03265519
131	0x3bd44a7d	0.0064786063
132	0x3de49467	0.11161118
133	0x3db1f98b	0.08690175
134	0x3d5df5b3	0.054189395
135	0xbe8d460c	-0.27592504
136	0xbbe2afd0	-0.006917931
137	0x3d6927ae	0.056922607
138	0xbdbe2263	-0.092839025
139	0xbe446f1a	-0.19183007
140	0xbd59992c	-0.05312459
141	0xbd57c329	-0.052676354
142	0xbe2336ae	-0.15938827
143	0xbc92d81d	-0.017925316
144	0x3e81b16e	0.2533068
145	0xbb21db99	-0.002469754
146	0x3e4a706a	0.19769445
147	0xbe4e3793	-0.20138387
148	0xbe46543b	-0.19368069
149	0xbe0d9f43	-0.13830285
150	0x3d51726c	0.05113451
151	0x3d839c93	0.064263485
152	0xbe81e396	-0.25368947
153	0x3d5f947a	0.054584958
154	0x3b876901	0.0041323905
155	0x3d8cf63b	0.06882902
156	0x3d5a7e68	0.053343207
157	0x3cc68920	0.024235308
158	0xbd8fc5b7	-0.07020133
159	0xbd05b1c2	-0.032640226
160	0xbe3cdedc	-0.18444389
161	0xbe241a4b	-0.16025655
162	0x3d934442	0.071907535
163	0xbdd12fe4	-0.102142125
164	0xbcba3c02	-0.022733692
165	0xbcce32a2	-0.025170628
166	0xbe11f1bf	-0.14252375
167	0x3e3fee2e	0.18743202
168	0x3c9478a0	0.018123925
169	0xbdbc06a0	-0.09180951
170	0x3ec4564f	0.38347098
171	0x3ec5b2ac	0.38612878
172	0xbd00c918	-0.031441778
173	0xbd8a4126	-0.06750707
174	0xbdaa182f	-0.08305394
175	0x3e043c49	0.12913622
176	0x3e4c8229	0.19971527
177	0xbd51424a	-0.05108861
178	0xbe3dcf86	-0.18536195
179	0x3d771ef9	0.060332272
180	0x3db05b1a	0.08611126
181	0xbab35fcd	-0.0013685167
182	0x3e262e1d	0.16228528
183	0x3d28adf7	0.04118153
184	0x3d0e8f8a	0.03480486
185	0x3eb35c13	0.35031185
186	0x3dfe7002	0.124237075
187	0xbe824352	-0.25441986
188	0xbc15a2a2	-0.009133013
189	0x3c5fec1e	0.013667135
190	0x3eb76a33	0.3582321
191	0xbd9cd2ed	-0.076574184
