outputs/models/NL_gru_model.pt (torch, 199993 bytes, 12 tensors)

gru.weight_ih_l0 f4 [192, 1]
000000 9a cd c8 3d f7 4f b2 3d b8 08 a3 bc 3c 34 28 3e
       0.098048404 0.08706658 -0.019901618 0.16426176
000010 51 32 12 bd be 3a e9 3d 8c 1f fb bd e6 db 9d 3d
       -0.035692517 0.11388157 -0.122618765 0.07707958
000020 33 04 af 3b 66 a3 df 3e a3 e8 b5 3d 6e 87 64 3d
       0.0053410768 0.4367935 0.088822626 0.05579322
000030 3f d0 10 3d f2 ab e1 3d 45 32 47 3e ea 92 4d bd
       0.03535485 0.11019124 0.1945277 -0.050188936
000040 30 77 f5 bd ce e2 80 3c a9 88 38 be 31 3d 8a 3e
       -0.11985624 0.015733149 -0.18020882 0.2699981
000050 09 05 bd 3e 0e d9 81 be 78 18 d2 3e 5b 8b d0 3d
       0.36917904 -0.25360912 0.41034293 0.1018283
000060 e1 be ca bd d8 45 2e 3d 3b c2 39 bf 00 6a 39 3e
       -0.098996885 0.042547077 -0.72562 0.18106842
000070 ae 26 39 3c 89 e8 66 bd bd a1 cc 3e 20 0b 95 3c
       0.011300726 -0.056374107 0.39967147 0.018193781
000080 fb a6 61 be ef 28 22 3d a6 56 06 3e 0c c9 e3 bd
       -0.22036354 0.03958982 0.13118991 -0.11122331
000090 9a 93 b2 3e d5 d7 52 bc f7 19 08 bd fb ec 82 be
       0.34878236 -0.012868841 -0.033227887 -0.25571427
0000a0 e9 1b 0e 3e 25 ce 35 3e 3f 7f 8e 3d 97 8c a3 3c
       0.13877834 0.17754419 0.06957864 0.0199645
0000b0 16 0a 2a 3e 56 fa b3 3e f1 58 dc bc c2 b7 bb 3e
       0.1660541 0.3515193 -0.02689788 0.36663634
0000c0 75 48 03 bc 53 da ce 3e bd ea 8e 3d bb 37 72 bb
       -0.008012881 0.40400943 0.069783665 -0.0036959487
0000d0 87 d5 d5 3d e5 95 d2 3e dc e2 f9 3e 8e 5c 90 3d
       0.10441118 0.41129985 0.48805892 0.070489034
0000e0 96 7f 63 3e ec 86 af 3e bb 52 e8 bd c4 a0 26 3f
       0.22216639 0.34282625 -0.113439046 0.6508906
0000f0 93 34 78 3d a5 98 e6 3e d4 3f 94 3d 37 08 d0 bd
       0.060597014 0.45038334 0.07238737 -0.10157817
000100 c3 2d a4 3e 48 15 f1 be b3 f4 a0 bd 08 d2 b1 bd
       0.32066163 -0.4708655 -0.07859173 -0.086826384
000110 4c d5 81 be d8 67 a6 be 9f 7a 04 3d 21 f8 af be
       -0.25358045 -0.32501101 0.032343503 -0.34368995
000120 c5 9c cb bd c6 2d b4 3d 14 2c 13 be 10 fb a4 be
       -0.09942011 0.08797793 -0.14372283 -0.32222795
000130 0e 63 f7 3d 43 52 68 be f0 10 b4 be 2b df da be
       0.1207944 -0.2268763 -0.35169172 -0.4274839
000140 10 e7 92 bd 71 fe 8a be c5 f0 d5 be 31 c9 e8 bd
       -0.07172978 -0.27147248 -0.41785255 -0.11366499
000150 94 97 e8 ba 87 45 92 be 13 5b ef 3e 21 65 3f be
       -0.0017745369 -0.2856867 0.46749172 -0.18690921
000160 05 52 cf be 99 45 19 bf 49 48 a5 bf ab 62 8d be
       -0.40492263 -0.5987182 -1.2912685 -0.2761434
000170 37 5e fe bd 21 f6 b0 bd ea 19 c8 3b 22 98 bb be
       -0.12420314 -0.08640695 0.006106605 -0.36639506
000180 d3 1e 4a be 84 ea b0 3d cc 14 92 be 09 7b 03 bd
       -0.19738321 0.0863848 -0.28531492 -0.032099757
000190 82 df 2d 3f 45 99 b5 be a5 6c 89 be c4 61 13 be
       0.6791917 -0.35468498 -0.26840702 -0.14392763
0001a0 61 bf 1c be a9 1c 87 be e7 f2 84 be 9a df 05 be
       -0.1530738 -0.26389053 -0.2596657 -0.13073578
0001b0 fc 33 41 be 86 0b c9 3e 7b 32 65 3d e1 54 1f 3f
       -0.18867487 0.39266604 0.055956345 0.6223889
0001c0 ad 63 3b be ee 66 50 3e 14 74 0c bf 1f 4b ea be
       -0.18299742 0.20351765 -0.5486462 -0.45760438
0001d0 db 73 8c be e3 e5 9f be 36 37 98 3d e3 87 b3 be
       -0.2743214 -0.31230077 0.07432406 -0.3506461
0001e0 d4 bc 28 3c 60 d9 e8 3e d0 e7 60 bf 80 0b 55 3f
       0.010298926 0.45478344 -0.8785372 0.8322067
0001f0 90 56 58 be 92 11 de 3e 35 58 88 bd 94 e8 2d bc
       -0.21126771 0.4337278 -0.06657449 -0.010614533
000200 fb e7 a5 bd cd 38 a3 3e 57 3c 0a 3d 73 03 bb bd
       -0.081008874 0.31879273 0.03374895 -0.09131517
000210 56 b4 8b 3e 8c 68 7e 3e 64 eb de bc fe 6c 2a 3c
       0.27286023 0.24844569 -0.027211852 0.010401962
000220 94 bd 65 3d 2b da 18 3e 45 4a c3 3d b6 1b 0f be
       0.056089 0.14926974 0.0953565 -0.13975415
000230 c0 56 a4 3e ef b1 d9 3e b0 0f 8f be ca dd b6 be
       0.32097435 0.42518565 -0.27941656 -0.35716087
000240 f6 6d 12 bd d7 24 e1 be be 6a ed 3e c8 45 8c 3e
       -0.0357494 -0.4397342 0.463705 0.2739699
000250 51 30 9c 3c eb 14 c1 3d 12 2e 80 be c9 be af bd
       0.019066008 0.09427818 -0.2503515 -0.08581311
000260 8c 26 30 3d e5 a0 98 3e 12 83 a0 3c a1 67 88 3e
       0.04300551 0.29810253 0.01959375 0.26641563
000270 eb d5 0b bc 3d 69 0a bd 58 a3 0f 3e c5 21 d3 3e
       -0.008534889 -0.03379177 0.14027154 0.41236702
000280 36 24 05 bb 12 6b c2 3d 50 a3 30 bd 78 69 30 bd
       -0.0020315773 0.09493078 -0.043124497 -0.043069333
000290 f4 10 6a 3e e4 33 ca be de 72 3e 3e d7 eb cd bd
       0.2285803 -0.39492714 0.18598506 -0.100547485
0002a0 ed 7b a9 3e f0 a5 a8 bd b8 61 58 3c 1f 45 85 3d
       0.3310236 -0.08234775 0.013206892 0.065073244
0002b0 98 0e 7e be 99 ab 50 be 6a 39 74 3d b6 39 91 3e
       -0.24810255 -0.2037796 0.059625067 0.28364342
0002c0 aa eb 3b be 23 04 9a 3e d0 6b aa 3e 9f f4 18 3e
       -0.18351617 0.3008128 0.3328538 0.14937066
0002d0 99 d7 d9 3e 9d 75 e5 be e0 20 47 3d b3 53 c7 3e
       0.425473 -0.44816294 0.048615336 0.38931045
0002e0 09 b8 b4 3e 95 4e c4 be 0c a1 1c 3e e1 a4 16 be
       0.35296658 -0.38341203 0.1529581 -0.14711334
0002f0 5d 8e b5 bd 56 00 8d 3e 83 cf b4 3e 74 75 71 3d
       -0.08865044 0.2753932 0.3531457 0.058949903

gru.weight_hh_l0 f4 [192, 64]
000000 1b 1c 2c bf fe e5 98 bd 61 05 d9 3e fb 13 32 3c
       -0.67230386 -0.074657425 0.42386916 0.0108690215
000010 bf 35 3d bd dd 91 b7 3b 87 f7 da be 33 98 0f 3d
       -0.046193834 0.005602105 -0.42766973 0.035057258
000020 65 f7 ad 3d 83 27 02 3f 0a 00 19 be 73 19 d9 bc
       0.084944524 0.5084154 -0.14941421 -0.026501393
000030 75 05 b3 3d 42 df 3e 3c f6 c7 eb bd b2 4e 64 bd
       0.08741275 0.0116499085 -0.11512749 -0.055739112
000040 45 b7 0b 3e d6 a0 5d be bb dc 1a bd d3 e6 0f bc
       0.1364413 -0.21643385 -0.03780816 -0.00878306
000050 a3 fb 18 be 7a 4f 03 3f 31 ac aa 3e 6a dc 22 3e
       -0.14939742 0.51293147 0.33334497 0.15904394
000060 13 1f b8 be d2 27 38 be 16 39 60 3f 94 a2 0a be
       -0.35961208 -0.1798394 0.87587106 -0.13538581
000070 5d ae 84 3e 4d 0b 43 bd 5a ad 4c 3e 23 48 82 3e
       0.2591428 -0.0476182 0.19988003 0.2544566
000080 17 df 82 bd b0 e2 8d 3e 57 74 16 3d a6 f1 86 3d
       -0.06390207 0.2771201 0.036732044 0.065890595
000090 47 99 05 3d 89 02 b9 3c 39 44 92 be 2f 77 25 3e
       0.03261688 0.022584217 -0.28567675 0.16158746
0000a0 70 17 4f bc 9f 38 8c bd e6 6b 58 3d 46 73 50 3d
       -0.012639865 -0.06846737 0.052837275 0.050891183
0000b0 99 c7 10 bf e3 1b ff 3e 27 f4 17 3e 37 ce 45 bb
       -0.5655456 0.49825963 0.1483923 -0.0030182728
0000c0 13 c9 8a bd 46 78 51 be f4 30 b8 3d ab 2a ee 3d
       -0.06776633 -0.20456037 0.08993712 0.11629232
0000d0 79 f4 3f 3d 0d d0 72 3e 2c fa 77 3e a5 ac c5 bc
       0.046864007 0.23712178 0.24216527 -0.024130175
0000e0 b3 a5 18 bd c3 e5 24 3e 91 f4 13 3e 78 a7 68 be
       -0.037267398 0.16103272 0.14448763 -0.22720134
0000f0 a5 8d 0b 3c c3 23 f5 bd 99 ed 3b 3d d0 96 44 bb
       0.008517657 -0.11969712 0.045880888 -0.0029997118
000100 af 4f ab bd f2 0c c0 be a6 ad c5 bd 57 c6 ad 3d
       -0.08364808 -0.37509876 -0.096522614 0.08485096
000110 60 e0 22 3c 97 1f 20 be db 29 f5 bd 81 3b 44 bc
       0.0099411905 -0.1563705 -0.11970874 -0.011977077
000120 83 0e 6e bd e8 b8 7c 3d 13 0b f3 bd b3 f0 af 3e
       -0.05811931 0.061699778 -0.118673466 0.34363326
000130 81 1e 07 3e f5 0c 43 bd 50 a8 31 be 37 7a 78 3e
       0.1319523 -0.04761978 -0.17349362 0.24265371
000140 c5 ee 2e bc 18 e9 04 3e 87 44 1b bf bb 11 b2 3c
       -0.010677044 0.12979543 -0.6065144 0.02173697
000150 aa 8c 7b 3e 87 01 15 3e 62 69 da bd c6 ec 01 3e
       0.24565378 0.14551364 -0.106646314 0.12687978
000160 23 02 9e bc 4b f8 44 bd 15 cb eb 3e a7 49 83 bd
       -0.019288128 -0.048088353 0.46053377 -0.064105324
000170 f9 1e 0f 3e 35 82 52 bd e0 18 6e bc 5c 5d dc be
       0.13976659 -0.051393706 -0.014532298 -0.43039978
000180 3a cf 8f 3d ff 4c 30 3c ee 15 1c 3d 1f e4 4a 3d
       0.07021947 0.010760545 0.03810685 0.04953396
000190 fe 6c e3 3d 4c 8c 01 be be 79 ea bd 28 ce 0e 3e
       0.11104773 -0.12651175 -0.11449002 0.1394583
0001a0 0e 1a 87 be 2b 1f 41 3e 7d 8d 19 bd 79 b5 fa bd
       -0.26387066 0.18859546 -0.03748845 -0.122416444
0001b0 37 39 3c be a8 ff 5b bd 61 bd 51 3c eb ea 3b ba
       -0.183812 -0.05371061 0.012801499 -0.00071684894
0001c0 d4 e0 ba 3d 32 02 bd bd 77 ea b6 be 3e 43 17 bb
       0.09124914 -0.09228934 -0.35725757 -0.002308085
0001d0 c8 dd c2 be 9a ac bb 3d bc 80 cd bc 87 52 23 be
       -0.3805983 0.091637805 -0.0250858 -0.1594945
0001e0 11 fd 10 be e6 c0 2d be 5f f7 0f be 2f 21 f5 bc
       -0.14159037 -0.16968116 -0.14059208 -0.02992305
0001f0 79 d3 9d bd bf ad 85 3d dd f2 f5 bc b8 43 1b be
       -0.07706351 0.0652728 -0.030023033 -0.15162551
000200 6f 4f a4 3e bb 0b 81 bb f5 45 d9 bd 96 9a 27 3e
       0.32091853 -0.003938166 -0.10609046 0.16367564
000210 0a 65 4e 3c 7d a7 27 3e 11 a3 24 be db 68 6e 3d
       0.012597332 0.16372485 -0.1607783 0.058205467
000220 17 78 ad be ce d3 1c be 24 a6 de 3d da 4c c7 3d
       -0.33880684 -0.15315172 0.108715326 0.09731455
000230 23 42 18 be cf 1f a5 be 7a 27 96 3e 91 fb 50 3d
       -0.14868979 -0.3225083 0.29326993 0.051021162
000240 64 ce 64 3e a6 36 41 be 79 26 01 3e a3 4e 31 3d
       0.22344357 -0.18868503 0.12612332 0.043287884
000250 bf 9d c2 be 7a 29 eb 3d fa d6 6d bd 05 c2 da 3c
       -0.38010976 0.114825204 -0.058066346 0.026703844
000260 54 ed ab 3e f8 5f 32 3e b1 0d a9 3e 66 a9 8c be
       0.33579504 0.17419422 0.33018258 -0.2747299
000270 02 ca 07 3d 55 bd a6 3d 0e 1b 46 be 14 61 35 bd
       0.033151634 0.08141581 -0.19346258 -0.044282034
000280 cd fa 75 be 7e c0 66 3d 2b db 46 3d 9d d7 62 3e
       -0.24021454 0.05633592 0.04854886 0.22152562
000290 2f 4f 82 be 63 77 7d 3e 9d 2f 8c bd 23 27 92 bd
       -0.25451037 0.24752574 -0.06845019 -0.07136371
0002a0 ad a5 ad bd 5a e1 a0 bd 2f 6e a1 3d 1a 82 8f 3d
       -0.08478866 -0.078554824 0.07882344 0.07007237
0002b0 2f d3 3f 3e 9b 84 13 3f 1e 9e 4b be f5 0d f9 bc
       0.18732904 0.57624215 -0.19884536 -0.030402163
0002c0 bc 0a af bd 60 1e 03 bf 95 77 65 3d 4e bc 32 be
       -0.08546969 -0.51218224 0.056022245 -0.17454645
0002d0 4e 24 82 3c 2f 0c d3 3e 09 97 ec bd 15 a2 27 3d
       0.015886452 0.41220233 -0.11552245 0.040926058
0002e0 c3 58 a2 be a4 00 5b 3e c5 a2 55 3a 6a 35 94 3e
       -0.31708345 0.21386963 0.000814956 0.28947002
0002f0 4c 1d ad bd 9e b3 2f be 50 d6 f3 bd 9b ba 7b 3e
       -0.084528536 -0.17158362 -0.11906111 0.24582903
000300 1b a6 c3 bb 14 7d 3d 3e 12 d3 40 3d ed a5 bf bd
       -0.005970729 0.18504745 0.047076292 -0.0935782
000310 2a 28 6c 3e b8 33 19 bd 39 65 60 bd d7 82 80 3e
       0.23062196 -0.03740284 -0.054784033 0.25099823
000320 7c 28 2b be 51 34 96 3d 24 d5 9f 3e 50 a7 30 3e
       -0.16714662 0.07334197 0.312173 0.17251325
000330 ad 9e 0c bd fb a7 54 3d 5e 53 f5 bd 2b c9 4b be
       -0.034331013 0.05191801 -0.11978792 -0.19900958
000340 0c 3d 7d be f4 1b e4 bd 37 d0 e6 3d 0a fe 3c 3e
       -0.24730319 -0.11138144 0.112701826 0.18456283
000350 40 81 82 be 8f 57 ca 3e cd 0a 4e 3d 30 58 ad be
       -0.25489235 0.39519927 0.05030327 -0.33856344
000360 5e b8 76 3d 52 7b d1 ba 3d ad 29 3e 74 94 f6 bd
       0.06023442 -0.0015982187 0.16569991 -0.12040034
000370 26 73 2d be 37 4c 98 be de 71 38 3d e7 97 dc 3d
       -0.16938457 -0.29745647 0.045030467 0.107711606
000380 b4 fa 7f 3e d5 50 ba bc 57 28 88 bd 9b 31 da bd
       0.2499798 -0.022743622 -0.06648319 -0.10653993
000390 34 e9 52 be 24 55 89 be e4 ec 84 3b b6 b8 d6 bc
       -0.20596772 -0.2682277 0.00405656 -0.026211124
0003a0 e9 da 02 3d 27 8d 26 be cc d1 a2 3e cd c8 62 3e
       0.03194705 -0.16264783 0.31800687 0.22146912
0003b0 5e 9b 6b be 47 94 02 3e 54 00 08 be c6 1c 8b 3d
       -0.23008487 0.12751876 -0.13281375 0.067925975
0003c0 34 6a 50 be 7d a7 c2 bd ba 29 3e 3e b8 72 97 3e
       -0.20353013 -0.09504602 0.18570605 0.2957971
0003d0 50 91 1e 3e d0 4d 03 3e bf 97 d2 be 97 43 8a bd
       0.1548512 0.12822652 -0.41131398 -0.06751173
0003e0 ab 75 e6 3d 41 dc 0d 3f 10 1e 9e 3d 7c cf 65 bd
       0.11252912 0.55414206 0.07720578 -0.056106076
0003f0 92 4d f1 bd cf d3 59 be a1 ca 97 3d fc 7d 0a be
       -0.117823735 -0.21272205 0.07411695 -0.13524622

gru.bias_ih_l0 f4 [192]
000000 5e 91 80 be 1c 92 86 3d 85 67 26 bf 32 1d 1a bf
       -0.25110906 0.06570837 -0.6500171 -0.602008
000010 2b 61 1c bc 6b 2f 2b bd 10 6f fc bd 39 fd 3c be
       -0.009544651 -0.04179327 -0.12325871 -0.18455972
000020 57 3a 6a bf a4 24 60 be ce 96 80 be de e3 00 be
       -0.9149527 -0.21888977 -0.25115055 -0.12586924
000030 ea 00 83 bd 75 e8 96 3c bc d7 91 3d a1 5e fb 3d
       -0.06396659 0.018421391 0.07121226 0.122739084
000040 04 e5 ac be 47 9b 4b 3e 92 51 9f 3e e9 54 0d bd
       -0.33768475 0.19883452 0.3111692 -0.034504805
000050 24 57 2d be 1d 21 f6 be da cb e6 3d 10 04 5b be
       -0.16927773 -0.48072138 0.1126935 -0.21388268
000060 a3 77 00 3e 3a 98 03 3d 7e 98 00 3d fb e1 11 bd
       0.12545638 0.032127596 0.031395428 -0.035615902
000070 04 d7 04 bd a8 a7 c7 be b4 ab 1b bf 17 8a ec 3c
       -0.032431617 -0.389951 -0.60808873 0.02887444
000080 be b1 28 bf 4f 3f 8b bf 58 4d 60 be b9 01 16 bf
       -0.65896213 -1.0878695 -0.21904504 -0.5859638
000090 03 61 a6 3c d9 b7 77 3d 40 35 92 3c df e0 29 be
       0.02030993 0.060478065 0.017847657 -0.16589688
0000a0 84 77 ea 3d 5f ab c4 be a2 2e 16 bf 9d 91 ea be
       0.11448577 -0.38411996 -0.58664906 -0.4581422
0000b0 43 b7 48 be 23 ec 2c be 54 ae 90 bf 09 3f 49 be
       -0.19601159 -0.16886954 -1.1303201 -0.19652952
0000c0 92 54 90 be d1 98 22 be de ad be 3d b4 ce 27 be
       -0.28189522 -0.15878607 0.09310506 -0.16387445
0000d0 dd ae 39 3d c7 84 49 3e 73 e6 3d bf e3 88 30 bd
       0.04533278 0.19679557 -0.7417976 -0.043099295
0000e0 67 75 c4 3d e1 23 2e 3e 39 c1 d4 3d 41 68 41 be
       0.09592705 0.17005874 0.10388417 -0.18887426
0000f0 52 48 d5 be 89 68 a7 3c 4d 39 46 bc 6f 7f da bd
       -0.4165674 0.020435588 -0.0120986225 -0.10668837
000100 71 2a 9e 3f e5 80 94 be f1 ff 2f 3f 26 41 85 3e
       1.2356702 -0.2900459 0.6874991 0.26026267
000110 45 7b 0b be 5d 77 ac bd 2a 51 84 3e 77 dd e1 3e
       -0.13621242 -0.08421204 0.25843173 0.44114277
000120 eb 04 0b 3f 86 7e 9e 3f a7 93 b7 3e 0d c6 f5 bd
       0.5430438 1.2382362 0.35854837 -0.12000666
000130 bd b8 95 be 3a 1b 61 bf 28 25 00 bf 8c ca 81 bf
       -0.29242507 -0.8793217 -0.50056696 -1.0139937
000140 76 0b b3 3d bf 76 ac bf 8b 13 90 bf 60 ee 32 bc
       0.087424204 -1.3473738 -1.1255964 -0.010921091
000150 c4 84 38 3f 76 fd 51 3f f3 0a 87 3e d6 5d b8 3e
       0.72077584 0.82027376 0.2637554 0.3600909
000160 ae c2 87 3f b9 a5 15 bf 54 e3 59 3f cd c0 f6 be
       1.0606287 -0.58456 0.851125 -0.4819397
000170 02 33 80 3e 82 cb 90 3e f9 70 8f 3d 7b d6 a9 bf
       0.25038916 0.28280264 0.0700397 -1.3268579
000180 3c 0f 92 3e f5 26 c5 3e 55 4e 99 3d 34 48 76 3e
       0.28527248 0.38506284 0.07485644 0.24050981
000190 ec 1a 55 3d 50 16 9d bf 94 41 3b 3e ca 25 07 3e
       0.052027628 -1.2272434 0.18286735 0.13198009
0001a0 0b 1d 18 bf b4 ba 10 3f 88 dc f2 3e 5b f9 8f 3e
       -0.59419316 0.56534886 0.47433877 0.2811993
0001b0 b1 61 f9 3f ed d9 f1 3e ce ac 9e 3e ca 21 2a bf
       1.9482938 0.47236577 0.30991215 -0.6645781
0001c0 0b ff 6a 3e 85 5a d5 be dc 8c 33 bf c0 c4 ee 3d
       0.22948854 -0.41670623 -0.7013681 0.11658621
0001d0 e7 ab 95 bf 8a 4b 3b bf 1e 4d cb 3e 52 74 6c bf
       -1.1693085 -0.7316214 0.39707273 -0.9236499
0001e0 87 f2 71 bf de 32 2a bf 24 b5 ea 3d 04 2b 1d 3f
       -0.9451069 -0.6648387 0.11460331 0.6139376
0001f0 84 03 f6 3e 6e 51 66 3c c9 79 13 bf b1 65 fb 3e
       0.48049557 0.0140575 -0.57607704 0.49101022
000200 f6 1c ef bd cf 36 88 bd 78 4d 05 bb b8 99 7d bd
       -0.11675446 -0.06651079 -0.0020340364 -0.061914176
000210 6a 6c d4 3c 2e 7e 03 be 08 0c 5e 3d 44 e4 41 bd
       0.025930602 -0.12841102 0.054210693 -0.04733683
000220 a3 15 e7 3c b3 86 aa 3d 0d 3d 39 3c 88 fc a6 3d
       0.02820856 0.08326473 0.01130606 0.08153635
000230 10 9d da bd e9 a1 87 3d af 81 ca bd 01 10 12 3b
       -0.106744885 0.06622679 -0.098880164 0.002228737
000240 13 c1 6c bd 94 92 ae 3d 12 6c b0 bd f1 20 fd 3c
       -0.057801317 0.08524051 -0.08614363 0.030899497
000250 a7 4e 94 3c 39 21 5e bd 42 58 1c 3c c7 bd 50 3c
       0.01810391 -0.054230902 0.009542527 0.012740559
000260 7f a6 12 bd 04 fc 86 bd 9b 91 b8 3d 4e 78 d0 3a
       -0.035803314 -0.06591037 0.09012147 0.0015904994
000270 05 67 f0 bc 89 8b 2f 39 24 00 9b 3d ee da 8d bd
       -0.029345999 0.00016741281 0.07568386 -0.06926523
000280 68 09 9b 3c bd 04 ad 3c bb f1 8e bc 0c bb 8d bc
       0.018925384 0.021120423 -0.01744925 -0.017301105
000290 a6 ee dc 3d 54 a2 5c bd 0c 5b 50 bc 74 8c d4 3c
       0.10787706 -0.053865746 -0.01271702 0.02594588
0002a0 fa ba c4 3c ed 88 93 3c 5f 3a 4b 3d de 5a 18 3d
       0.024014939 0.018009627 0.049616214 0.037196033
0002b0 96 01 8e 3d 51 31 d8 bd 8d 7a f2 3c 8a 9e 03 3d
       0.06933896 -0.10556281 0.029599452 0.032133617
0002c0 64 ae 15 3d 0b a1 92 3d 3e c2 07 be 04 8f 49 3c
       0.036543265 0.07159623 -0.13257691 0.012302164
0002d0 77 1f a4 bd 1e 93 b2 bd a7 97 80 3c 11 2e e9 bd
       -0.08013814 -0.087194666 0.015697313 -0.113857396
0002e0 91 3f ce 3d dc 40 c9 bd d1 bc cd bd 5a 0b d3 bd
       0.10070718 -0.09826824 -0.100457795 -0.103048995
0002f0 90 00 f1 3c 2c dc 95 3d 3c a9 e5 3d c8 af e8 3c
       0.029419214 0.07317385 0.112139195 0.028404132

gru.bias_hh_l0 f4 [192]
000000 db 4a 0d be e5 e4 5d bd c2 2c 28 bf 6c 7b 0b bf
       -0.13798086 -0.05417337 -0.65693295 -0.544852
000010 87 67 1f be 63 54 3f 3c 5b 45 25 be 1d 8c 50 be
       -0.15566836 0.011677834 -0.16139738 -0.20365949
000020 1b 38 51 bf d0 ed 94 be 9c a5 af be e8 d5 d1 3b
       -0.81726235 -0.29087687 -0.34306037 0.0064036734
000030 f2 45 b0 bd a5 14 83 3e b4 d6 d4 bd 80 2d 73 bd
       -0.08607091 0.25601688 -0.10392514 -0.059369564
000040 c1 72 68 be 99 44 f3 3d 5e d1 9c 3e d2 bb 78 bd
       -0.22700025 0.11878318 0.30628484 -0.060725994
000050 90 c7 8e be f7 20 0f bf 84 07 dc 3c c0 4b 53 be
       -0.2788663 -0.55909675 0.026859052 -0.20634365
000060 3b b5 77 3e bd cf cc bb 3f 4c 36 3e e3 6e 33 bd
       0.24190228 -0.0062503503 0.17802523 -0.04380692
000070 f2 03 aa bd 1c a0 7e be 66 28 19 bf 08 36 1e 3e
       -0.08301534 -0.24865764 -0.5982727 0.15450299
000080 a3 b9 64 bf 29 61 72 bf 50 6b 8d be 43 51 cd be
       -0.8934576 -0.94679505 -0.27620935 -0.4010106
000090 eb 41 1f be da 1b dc 3d 72 ef ed bb 3f c8 6b be
       -0.1555249 0.107475 -0.00726121 -0.23025607
0000a0 f6 33 88 3d 10 59 01 bf fe 11 e3 be 5e 55 b0 be
       0.06650536 -0.50526524 -0.44349664 -0.3444013
0000b0 d2 e0 05 be 2a 97 96 bd de eb 88 bf 47 3d de bd
       -0.13074043 -0.07353051 -1.0696981 -0.108515315
0000c0 b2 a1 82 be 80 55 0c bd 1b 99 6c 3d 50 67 83 be
       -0.2551399 -0.034261227 0.0577632 -0.2566476
0000d0 9d 6e 4d 3e 0a 6e 3c 3e e7 25 2e bf 9f b5 b9 3d
       0.20061727 0.18401352 -0.68026584 0.090678446
0000e0 6d c6 66 bd 50 92 18 3b 6b f2 0a 3e 65 2a 66 be
       -0.056341577 0.0023280568 0.13569038 -0.2247711
0000f0 4c 73 0a bf 8d 6a 59 3d 87 de 74 ba 96 76 ad be
       -0.5408218 0.05308013 -0.00093410205 -0.33879536
000100 15 67 9c 3f db e9 cc be 7c 1a 33 3f 98 2e 92 3e
       1.2218958 -0.40022168 0.69962287 0.28551173
000110 fa e5 34 be 40 c7 1d 3d 9e ad 8e 3e 3f f8 20 3f
       -0.17665854 0.038520098 0.27866834 0.62878793
000120 af 82 04 3f 6c b7 98 3f ad 14 41 3e a3 a9 cd bd
       0.5176191 1.1930976 0.18855543 -0.10042121
000130 b2 03 98 be e3 d5 45 bf 86 84 0d bf 71 71 65 bf
       -0.2969032 -0.7727949 -0.5528034 -0.8962622
000140 1b 35 be 3d ef f8 9f bf b0 fe 97 bf 36 8b e2 bd
       0.09287473 -1.2497844 -1.18746 -0.11061709
000150 18 af 12 3f f4 61 4b 3f da 41 2f 3e dd 10 63 3e
       0.5729842 0.7944634 0.17114964 0.22174402
000160 9c db 6a 3f 2d 5d 2f bf c5 44 68 3f 69 96 c9 be
       0.9174135 -0.6850155 0.90729934 -0.39372566
000170 78 de 4a 3e 8b 89 4a 3e 65 33 08 3e d7 01 ac bf
       0.19811428 0.19779031 0.13300855 -1.3438061
000180 15 ef cd 3e 22 c9 01 3f dc c5 00 3e 81 60 38 3e
       0.40221468 0.5069753 0.12575477 0.18005563
000190 af 59 38 3d a3 c6 a7 bf 12 e2 53 3e b8 43 5d bc
       0.045007404 -1.3107494 0.20691708 -0.013504915
0001a0 e5 f0 10 bf aa 9f f6 3e 2f f4 bb 3e 23 a5 28 3e
       -0.56617576 0.4816869 0.36709735 0.16469245
0001b0 93 e4 f4 3f d7 98 a2 3e 37 2f e6 3e 2b 92 23 bf
       1.9132255 0.31757233 0.44957897 -0.6389491
0001c0 63 0d 63 3e a1 c7 15 bf 7a e0 3b bf 54 11 8c 3a
       0.22173075 -0.58507735 -0.733894 0.0010686317
0001d0 87 67 90 bf ca 9f 73 bf 16 57 b2 3e c6 ed 81 bf
       -1.1281594 -0.95165694 0.34832066 -1.0150688
0001e0 d5 56 59 bf 27 36 3f bf 3d 83 28 3d bc b4 fe 3e
       -0.8489812 -0.74692005 0.041140784 0.49747264
0001f0 50 8f a7 3e a1 37 02 3e 7b f8 18 bf 42 7e ed 3e
       0.32726526 0.12716533 -0.5975415 0.4638539
000200 d9 f6 5e bd 16 fc d6 3c 4c 46 2f 3d 37 66 53 3d
       -0.05443463 0.02624325 0.04279165 0.05161115
000210 c8 ce e0 bd 55 b3 b9 3d e9 a0 d4 3b ac bd 0b 3d
       -0.109769404 0.09067408 0.0064889085 0.034116432
000220 7c 22 8b bb 69 8b c0 3a 2b 44 8e bd b3 ca 0b be
       -0.004246054 0.0014689985 -0.06946596 -0.13651542
000230 0c 8b 0f 3e 1f 0a 85 bd 96 ac 82 3d b6 ca ae 3d
       0.14017886 -0.06496071 0.063805744 0.08534758
000240 5c e9 c1 bb 27 31 67 bd 33 ce 14 bd 82 29 47 bd
       -0.005917711 -0.05644336 -0.03632946 -0.04862357
000250 cb 13 ea 3d 92 33 81 bd 60 7a 8f bc 58 7b 1b 3d
       0.114295565 -0.063086644 -0.017514408 0.037959427
000260 4a 54 99 3d 8a 89 b4 3d bf 76 31 3d 5b 0a 41 bc
       0.0748678 0.08815296 0.043326136 -0.011782254
000270 ab ff 0b 3c 06 3a de 3c 3e af 33 bc 3a 51 48 3b
       0.008544843 0.027127277 -0.010967074 0.0030565993
000280 0e 2b 87 3e 9c b9 a3 bd 4f 69 36 bc d1 8e cf bd
       0.26400036 -0.079943866 -0.011133506 -0.10134662
000290 bc 2f 10 bd 11 cc af 3d 73 e9 32 bc 71 7f 27 3d
       -0.035201773 0.085838445 -0.010919916 0.040893022
0002a0 8d ed 0d bd 8f a3 b6 3b ba 82 00 be 62 3e e8 bd
       -0.034650374 0.005573697 -0.12549868 -0.113400236
0002b0 56 83 6d 3c ab 79 25 3d 1e 8c 71 3d 8a 7b 0e 3c
       0.014496645 0.040399235 0.058971517 0.008696446
0002c0 c6 9f 40 bd 9b bf 72 3d b7 57 ca 3d f1 48 85 bd
       -0.04702737 0.05926476 0.098800115 -0.06508053
0002d0 90 f6 19 3c 19 5b e9 bb 70 18 07 be 28 03 a4 3d
       0.009397164 -0.0071214554 -0.13192916 0.080084145
0002e0 7f 0b 34 bd 8c 1f 79 3d 97 22 f4 3d 16 98 15 bc
       -0.043956276 0.0608211 0.1192066 -0.009130498
0002f0 32 26 40 ba 97 17 59 bd 71 92 15 be 5e 74 1d bd
       -0.00073299103 -0.053001013 -0.14606644 -0.038441055

gru.weight_ih_l1 f4 [192, 64]
000000 e2 fd 75 3e 50 0c c2 3e 9d 15 3f 3e 97 eb f6 3d
       0.2402263 0.3790002 0.18660589 0.12056654
000010 4b 96 a5 3e 43 f5 d9 3d 95 b3 66 3c d5 55 18 3f
       0.32341227 0.10642483 0.014080902 0.5950597
000020 c5 b5 32 3e 05 b6 22 bd 64 9b e4 3e 5e d0 e4 bd
       0.17452152 -0.03972437 0.44649804 -0.111725554
000030 c3 38 1e be bd 4c e5 bd 96 5a 99 3e 2a 04 87 3e
       -0.1545134 -0.11196277 0.29951924 0.26370364
000040 95 9f 2b be ef 9d 03 3f 78 bd 25 bd bd ef 8a bd
       -0.16760094 0.5141286 -0.040463895 -0.06784008
000050 cc 59 f4 be 98 15 52 bd 98 fe 0f 3d e4 7e 11 bf
       -0.4772476 -0.051290125 0.03515491 -0.56834245
000060 d4 56 9c bd 02 92 43 be 05 7d bd be 93 88 25 be
       -0.07633749 -0.19098666 -0.37009445 -0.1616538
000070 26 94 ee be bd 04 04 bf 03 6e ca bd ff 89 5d be
       -0.46597403 -0.5156973 -0.09884264 -0.21634673
000080 1f 7a ab bd f9 70 77 3e 6e 8d 98 be 18 36 2b bc
       -0.08372902 0.2416419 -0.29795402 -0.010449909
000090 3a 9b 3c bc 09 91 85 3d a0 7b 0d 3e 3c 0f 4a bc
       -0.011511618 0.06521804 0.1381669 -0.012332734
0000a0 1d ec 88 be 73 46 02 bf ee fc b4 3e d6 ed 0f 3e
       -0.2674264 -0.50888747 0.3534922 0.14055571
0000b0 d5 b7 8f 3d 46 fc 06 3e f2 33 74 3e 2a 87 99 be
       0.07017485 0.13182172 0.2384794 -0.29985934
0000c0 5d 04 6f be 29 6f e9 be b0 83 5a 3d 63 9f 30 3e
       -0.23341508 -0.4559262 0.053348243 0.17248301
0000d0 f9 67 42 be ab be a9 3e 73 69 b7 3e 5e 40 45 bc
       -0.18984975 0.3315328 0.3582264 -0.012039272
0000e0 c9 30 87 be 92 ae a6 3e 2d 67 a0 be af b4 91 be
       -0.26404408 0.32555062 -0.31328717 -0.28458163
0000f0 e8 ca 69 be e9 38 b2 be d4 15 18 3e c5 58 67 bd
       -0.22831309 -0.34809044 0.14852077 -0.05648114
000100 a3 51 fb bd 42 38 be 3c 6e a6 c8 3e e2 9d b5 bd
       -0.1227143 0.023220185 0.39189476 -0.088680044
000110 07 3c ea bd c8 d0 36 3d bc 9d 1f be 4d f9 d2 3e
       -0.114372306 0.044632703 -0.15587515 0.41205826
000120 e8 77 45 3e 06 e6 a5 3e f8 7f 9b 3e d7 e2 96 bd
       0.19284022 0.32402056 0.3037107 -0.07367485
000130 d7 33 54 3e 70 10 34 be 20 d0 84 be 0a d4 c6 3d
       0.207229 -0.17584395 -0.25940037 0.09708412
000140 59 76 8c be 85 19 83 3e ec 5a 1c be b7 33 6c 3e
       -0.27434042 0.25605407 -0.15269059 0.23066603
000150 35 21 f3 be 85 59 1f 3f 0c a9 90 be 33 82 86 be
       -0.47486272 0.6224597 -0.28253973 -0.2627121
000160 55 22 bc be 30 7b 05 be d7 8a 58 3e de a6 2e 3e
       -0.36744943 -0.13035274 0.21146713 0.17055842
000170 1d 4f 01 be ac 1d b3 be f7 6d ba 3e ac 7c cc be
       -0.12627836 -0.34983575 0.36412022 -0.39938867
000180 75 66 b0 3e 0f fe 04 3f ad 89 dd bd c0 83 44 be
       0.3445317 0.5195016 -0.10817275 -0.19190884
000190 28 5f 69 3e 3c 49 88 3e 85 54 c9 3b d5 d5 60 bd
       0.22790205 0.26618373 0.0061441087 -0.054891426
0001a0 49 86 1b be 5c 8e 1c bf 52 df fb 3e 22 8c ef 3e
       -0.15187944 -0.61154723 0.49193817 0.467866
0001b0 ad 2c 82 be 8c 40 31 3e 55 e5 9a 3e 89 df 5a 3e
       -0.2542471 0.17309779 0.3025309 0.21374334
0001c0 d9 d1 85 be 16 60 08 bd 17 fa 92 be 48 d3 7a 3e
       -0.26136664 -0.03329476 -0.28706428 0.2449466
0001d0 87 f8 40 be 3e cd 1e 3e 71 7b 34 3e af be aa be
       -0.18844806 0.15507981 0.17625214 -0.33348605
0001e0 c1 0c 97 bd 0d c1 60 bd 95 93 6f 3e 66 51 2c 3e
       -0.073754795 -0.054871608 0.23396142 0.16827926
0001f0 54 1c fa be d3 e5 ee 3e 1d 3a ba 3d 2a 0a ee be
       -0.48849738 0.46659717 0.090931155 -0.4649213
000200 d6 06 ff 3d 4b 84 88 3e 02 82 e2 be 23 55 7a 3e
       0.12452476 0.26663432 -0.44239813 0.2444654
000210 5c fd 35 3e ba 5b b7 bd 2d a8 76 3e e9 48 0d bc
       0.1777243 -0.08953042 0.24087591 -0.00862334
000220 d9 6c 91 be 77 f4 ae bd 1c 88 15 3e d3 3c 14 be
       -0.28403357 -0.08542722 0.14602703 -0.14476328
000230 66 d0 15 bd 19 11 34 3e 23 a9 38 be bd 27 a1 3d
       -0.036575697 0.17584647 -0.1803327 0.078689076
000240 bb ed 83 be d7 a9 c8 bd 0f 9e 1c bd 19 12 3e bd
       -0.2576731 -0.097980194 -0.038236674 -0.046403978
000250 d7 b7 72 3e f0 8b a6 bc 83 77 06 be e3 7a 11 3e
       0.23702942 -0.0203304 -0.13131528 0.14207034
000260 d2 f5 78 3e f1 9c b1 bd 47 f5 1c 3e 23 57 87 3d
       0.24312523 -0.08672512 0.15327941 0.06608417
000270 bc e0 5c bc 83 9f d2 bd 4d ac a3 bd fb 6d f6 bc
       -0.013481315 -0.10284331 -0.07991848 -0.03008174
000280 fc d7 76 bd f2 10 c3 be 56 9c ec bd 37 5f 0a 3f
       -0.060264573 -0.38098866 -0.11553256 0.54051536
000290 f8 35 22 be 7f 6b 6d be 7e 7f 27 3e 0e 06 a6 bd
       -0.158409 -0.23185538 0.16357228 -0.081066236
0002a0 5c a8 22 3d 23 3e dd 3d 27 87 8a be b1 90 8a 3e
       0.03971134 0.10802867 -0.27056238 0.27063516
0002b0 a5 bf 36 bc 8c 07 00 bd 47 4f b1 be 98 ed f7 3b
       -0.01115409 -0.031257197 -0.34630796 0.007566165
0002c0 ee d4 a2 bc a1 35 7f be 06 26 9e 3c 93 50 11 3d
       -0.019876923 -0.24922802 0.01930524 0.035477232
0002d0 43 37 6c bd 2b f1 6f be fd 94 8a bd 6b bc 11 3e
       -0.05766989 -0.23431842 -0.067666985 0.14232032
0002e0 f9 1c d4 3d b1 a8 8f 3e 06 8d df 3e dc 7c 76 be
       0.103570886 0.2805839 0.4366228 -0.24071068
0002f0 a0 7c 3c 3c de 1c 55 bd b1 37 10 3e 3c b6 07 3e
       0.011504322 -0.052029483 0.14083745 0.1325311
000300 05 8c 5d bd ae 64 31 bc 88 99 66 be 85 63 d4 3e
       -0.05408861 -0.010827227 -0.22519505 0.41482177
000310 08 f8 25 be d3 44 39 be 7c fc e1 bd a4 02 ac bd
       -0.16207898 -0.1809266 -0.11034486 -0.08398941
000320 4e 63 8c bd a4 20 bf be 21 07 21 3d b7 4f 1d 3e
       -0.06854878 -0.3732959 0.03931344 0.1536244
000330 23 67 cc be 05 16 bc bd c0 bc 41 3e 7d 3d 4c 3e
       -0.39922437 -0.091838874 0.18919659 0.19945331
000340 7f c1 aa 3d 3b da ef 3d ce 88 09 3d 9d 8c 8e be
       0.08337688 0.11711546 0.033577733 -0.27841654
000350 cc 28 b1 3d 66 d7 07 be ca a5 80 3e 18 f3 1e 3e
       0.086503595 -0.13265762 0.25126487 0.1552242
000360 4b f4 8b 3e bf 4a 50 bb f2 65 4b be 85 8e 0b be
       0.27334818 -0.0031782833 -0.19863108 -0.13628586
000370 ae 9b ae 3d d7 49 84 3a 57 b1 a5 be a3 1b a7 bd
       0.08525787 0.0010092807 -0.32361862 -0.08159568
000380 ef d0 51 3d 83 dd 97 be 60 2d 51 3e bc e9 94 3e
       0.051224645 -0.29661188 0.20427465 0.29084575
000390 58 8d ba be 03 58 32 3e da b4 81 bd 5c 14 b0 3e
       -0.36435962 0.17416386 -0.06333323 0.34390533
0003a0 39 da 23 bc 16 b9 8a 3d 4a 3c 38 be 64 d7 25 be
       -0.010000759 0.067735836 -0.17991748 -0.16195446
0003b0 40 c8 c5 3e b5 5f 2e 3e 3c ab 99 be bd 6f 28 bf
       0.3862934 0.17028697 -0.30013454 -0.657955
0003c0 f3 3d 93 3d 78 05 18 bf 53 cb 14 be 79 12 0e be
       0.0718955 -0.59383345 -0.14530687 -0.13874234
0003d0 89 ac b4 be 1a fc 47 3e 91 40 50 bf fc 72 f0 bd
       -0.35287884 0.19529763 -0.8134852 -0.117406815
0003e0 fa a5 a4 be ed b2 dd 3e 75 95 26 be 49 d7 1c 3f
       -0.3215788 0.43300572 -0.16267951 0.61266
0003f0 43 7f e3 3d 79 ab ee be 8f a9 48 bc b4 68 bb 3d
       0.111082576 -0.46615198 -0.012247457 0.0915083

gru.weight_hh_l1 f4 [192, 64]
000000 ea f1 90 3b a9 56 01 3e 48 f3 91 bd 15 82 b4 3d
       0.0044233697 0.12630714 -0.0712648 0.08813874
000010 33 17 b8 be 28 d0 33 3f bc d8 41 be b4 d6 1b be
       -0.359552 0.70239496 -0.18930334 -0.15218621
000020 d9 ce 94 3e f3 be d4 3e ec 59 d7 3d 58 53 1b be
       0.29064062 0.41551933 0.10515198 -0.15168512
000030 89 c6 43 3e 2e cd 5a 3d fc e8 f5 be 8c b3 fd bd
       0.19118704 0.05341833 -0.48029315 -0.123877615
000040 9f d4 3e 3e 0e 1a 89 3e de c6 44 3c 27 4d 0a 3e
       0.18635796 0.2677769 0.012010304 0.13505994
000050 7f 16 a7 3e 2b 28 7e 3e 17 78 d5 3e d8 89 1b 3e
       0.3263435 0.2482001 0.41693184 0.15189302
000060 06 2e 0f be 39 e9 d5 3e d5 f1 09 bd d7 6a ba 3d
       -0.139824 0.41779497 -0.033677895 0.09102409
000070 22 bb 0e bf 53 f8 95 3e 65 36 74 be 3a 41 72 be
       -0.5575429 0.2929102 -0.23848875 -0.23657694
000080 4f 95 75 3e a4 01 a6 be 84 f0 75 3c 19 5e e4 3e
       0.23982738 -0.32423127 0.015010957 0.4460304
000090 b9 6d c9 bd 39 a5 08 bc d1 07 f5 bd 3d 11 2f 3e
       -0.09835381 -0.008340173 -0.119643815 0.1709642
0000a0 2a 15 a3 bd 6c 28 24 3e ed 42 86 be 86 7a 48 3f
       -0.07963021 0.16031045 -0.26222935 0.78311956
0000b0 7e 95 01 3f 56 8e a2 bd 14 cc 3a bf 88 06 a5 3e
       0.5061873 -0.07937305 -0.7296765 0.32231545
0000c0 cc 6e cd 3d 89 07 8c 3e 69 11 88 3e de 4d 4d bd
       0.100308985 0.273495 0.26575783 -0.050123088
0000d0 9c 3d 0c 3f ad 3b 5c be 3d 43 84 3e e4 1c 80 3e
       0.5478151 -0.2150714 0.2583255 0.25022042
0000e0 f7 24 be 3d 61 2f 8a bd 85 1d 8c 3e f4 a1 d4 bb
       0.09284394 -0.06747318 0.27366272 -0.006489033
0000f0 92 d4 b0 be ea a9 38 3e b3 64 49 3d b1 5a d0 be
       -0.34537178 0.18033567 0.0491683 -0.40694192
000100 12 b2 7e be 49 57 4e be 23 14 b4 3d 90 05 eb be
       -0.24872616 -0.20150484 0.08792903 -0.4590268
000110 9d 0e d0 3d 3d 12 51 be 80 f6 3f be 44 47 f3 3e
       0.10159037 -0.20417114 -0.18746376 0.4751531
000120 89 62 07 bf a7 ba 2b bd 2f 38 b6 be 55 cc 2c 3e
       -0.5288473 -0.041926052 -0.3558974 0.16874821
000130 70 4e 13 be d8 5e fa 3e b2 31 b7 3e 5f de 80 be
       -0.1438539 0.48900485 0.35780102 -0.25169656
000140 41 f3 b0 3c 82 54 31 3e fc f8 a4 3e a3 2d d2 3d
       0.021600368 0.17317393 0.3222121 0.10262611
000150 06 5b 91 3e 4a 46 e4 3e 86 89 ec bd 0f 86 9c 3e
       0.28389758 0.44584876 -0.11549668 0.3057103
000160 4e 34 2a 3e ee f6 c4 be 9e 6a b1 be fe 2a 35 bd
       0.16621515 -0.38469642 -0.34651655 -0.044230454
000170 c3 35 84 be 18 b9 ae 3d 33 c3 46 be de 73 a8 3e
       -0.25822267 0.085313976 -0.194104 0.329009
000180 59 ca d6 be 91 0f c5 be bc f4 1a be 27 7b 0e bf
       -0.41951254 -0.3848844 -0.15132421 -0.55656666
000190 50 aa 92 be 8f ff e5 bd 6f 96 1e bd ac 1e 93 3e
       -0.28645563 -0.112303846 -0.038717683 0.28734338
0001a0 ad 09 39 bd 07 66 7c be 6b a9 0e bf e8 39 d1 3e
       -0.045175243 -0.24648295 -0.5572726 0.4086449
0001b0 9f 5f e7 3d af 52 b3 3e a5 15 a5 be 12 47 24 3e
       0.11297535 0.3502402 -0.32243076 0.16042736
0001c0 a1 07 bb be d8 2a 72 3d db 4e 0b 3e 77 07 c3 be
       -0.36529258 0.05912289 0.136043 -0.38091633
0001d0 b9 74 83 bc 37 a7 0d bc b9 58 8b 3d 22 27 08 3f
       -0.016046869 -0.008645824 0.06804032 0.5318471
0001e0 39 23 e0 3e 8e 0c 4f 3f 42 df 2e bd 87 b7 b8 3d
       0.43776873 0.8087853 -0.042693384 0.0901938
0001f0 4f 16 0a 3f 80 48 2b be f8 4f b4 3e 8a 6e d9 be
       0.5394029 -0.16726875 0.3521726 -0.42467147
000200 c9 72 89 3d dd cd b2 3d 84 95 86 be f4 8b 87 3f
       0.06711347 0.087306716 -0.26285946 1.0589585
000210 0c c2 42 bf c0 c0 7f 3e 8f f6 d6 3e 73 e3 07 bf
       -0.7607734 0.24975872 0.41984984 -0.53081435
000220 56 20 90 3c 31 a4 d9 3c 83 ac 25 3f 32 63 fc 3d
       0.017593544 0.02656755 0.64716357 0.123236075
000230 92 a5 86 3e 1d 2a 59 3e c4 de 0e be 91 c3 83 3c
       0.26298195 0.21207471 -0.13952166 0.016084464
000240 76 5f 81 bc b1 f7 f7 3e 15 9b c2 3d e9 a8 a8 be
       -0.01579259 0.4843116 0.09502236 -0.32941368
000250 ef 43 94 3e 10 63 a7 3c 79 81 49 be 4a 34 0a bd
       0.2895808 0.020432979 -0.19678296 -0.033741273
000260 94 21 17 bf bb 91 06 3f 09 52 df be e4 c9 14 bc
       -0.5903561 0.5256612 -0.43617275 -0.009081338
000270 13 9e 72 3e 00 8f 5a be 6d 43 de 3e ce 8f eb 3d
       0.23693113 -0.21343613 0.43410817 0.11502038
000280 97 a4 c0 3e ee 83 3e 3e ae 86 4c be 51 12 d4 bd
       0.37625572 0.18605015 -0.19973251 -0.10355056
000290 86 a3 2f 3e cc 2c 24 3f cb ec f9 bd 25 d8 cc bd
       0.17152223 0.64130855 -0.12203368 -0.10002164
0002a0 a3 07 26 be b5 51 8f bc 05 3f 76 3e ba 19 a3 be
       -0.1621385 -0.017495016 0.24047478 -0.31855565
0002b0 2a d4 9f 3e 91 5d ad 3d 45 dc 2b 3e e0 6c 3b bf
       0.31216556 0.08465112 0.16783245 -0.73213005
0002c0 7e 5f 9a bd 5e 34 61 3f 9d ba 82 3e b3 7b 9b 3e
       -0.07537745 0.8797053 0.25533 0.30367813
0002d0 5d d8 4a be 02 cb 9c 3e 33 cd 91 be 5b cb 32 be
       -0.19809099 0.30623633 -0.28476867 -0.17460386
0002e0 d1 f9 d2 bc c8 37 85 3e 81 11 13 3f ff 8c 51 bc
       -0.025753887 0.2601912 0.57448584 -0.012789964
0002f0 32 37 2e 3d 89 e9 84 bd 34 5d 27 3e 78 95 56 3f
       0.042533107 -0.06489856 0.16344148 0.8382182
000300 e3 60 e3 bd 01 9d 80 3e 08 2c 92 be d6 8c 03 3f
       -0.11102464 0.25119784 -0.28549218 0.51386774
000310 60 d3 ab bd d1 04 b1 3e 2c 99 eb 3e 08 f1 79 bf
       -0.08389926 0.34573987 0.46015298 -0.9763341
000320 e9 15 e9 3e ae b3 e5 bb 86 83 d2 3e 9e 9f ea 3e
       0.4552453 -0.007009945 0.4111597 0.45824903
000330 a2 20 8a 3d 3f df c6 3e c5 02 1e 3d 25 1b 78 bd
       0.067445055 0.38842198 0.03857686 -0.060572762
000340 10 b0 bd 3d c5 51 f5 3e f6 a3 96 3d 37 e0 bf be
       0.09262097 0.47913948 0.07355492 -0.3747575
000350 ae a7 03 be 39 cc 8d be 02 ef 9e 3e 45 84 9c be
       -0.12856933 -0.27694872 0.31041723 -0.30569664
000360 b3 0f f2 bd 1c 4e ce 3e 8d 53 08 bf 95 c9 29 3d
       -0.11819401 0.40293968 -0.5325249 0.04145201
000370 0e 88 1e be cd be 66 3e 42 0c 89 3e 87 37 6d 3e
       -0.15481588 0.22533722 0.26767164 0.23165713
000380 dc c5 0b 3f b8 8a 91 3c 0c 78 d7 be 40 d1 d8 bc
       0.54598784 0.017766342 -0.42083776 -0.026466966
000390 93 65 6b 3e a3 b1 05 3e 62 c3 a2 3d 23 75 d0 3e
       0.22987966 0.13056044 0.079474226 0.40714368
0003a0 f6 b1 56 be 10 c5 ae 3c 6e 68 dc bc eb 40 e3 3c
       -0.20966324 0.021334201 -0.026905265 0.027740916
0003b0 61 e9 84 3e c3 91 ad bc a2 23 81 bd 54 7e 33 bf
       0.25959304 -0.021187669 -0.063056245 -0.70114636
0003c0 fa 74 21 be 74 5f 48 3e 4d ce 47 3f 14 ff 04 3e
       -0.1576728 0.19567662 0.78049165 0.1298793
0003d0 34 fa 16 be 6c 42 ac 3e 21 be dd bd 97 cd 28 3e
       -0.14743882 0.33644426 -0.1082728 0.16484676
0003e0 45 70 81 3c 54 d3 c8 3d 3e 99 d7 3e d8 81 f1 3d
       0.015800605 0.09805933 0.42109102 0.11792344
0003f0 10 be 56 3e 89 dd ef 3d ef ec c7 3e 5c 88 6c 3f
       0.2097094 0.11712176 0.39047953 0.9239557

gru.bias_ih_l1 f4 [192]
000000 26 67 f6 bd dc 26 ab be d1 2e 51 be 68 c7 18 bf
       -0.12031393 -0.33428085 -0.20428015 -0.5967927
000010 cf 8e 80 3e da d7 52 3d 2a 43 ab be e6 c2 03 be
       0.25108954 0.051475383 -0.3344968 -0.12867317
000020 fd f4 00 3c 8c 88 35 be 67 10 1a be c0 da 53 be
       0.00787091 -0.1772787 -0.1504532 -0.20688915
000030 f6 6f 7f be 50 06 f7 3d bb 79 30 3e 69 9e 6e 3e
       -0.24945053 0.12061751 0.17233936 0.23302616
000040 b4 01 0f 3c a5 32 7e 3e 3d f0 dc bd f1 0b 60 be
       0.008728433 0.24824007 -0.10788009 -0.21879555
000050 ed d1 9f 3e ae fc 6e 3e 1e 66 21 be d5 d0 25 be
       0.31214848 0.23338577 -0.15761611 -0.16192944
000060 25 18 34 ba 64 be 2a 3d 8a 41 80 3e dc 5b 5e bd
       -0.0006870053 0.041685477 0.25050002 -0.054286823
000070 dd a3 cd bc 8a 19 68 be b1 99 02 be 68 dd 3d bd
       -0.02510255 -0.22665992 -0.12753941 -0.046353728
000080 f7 c6 fc 3e 7e d0 3e 3d 87 67 1b be 76 32 a2 be
       0.49370548 0.046585552 -0.15176211 -0.31679124
000090 04 f3 ee 3d d9 1f 0c 3e a4 cc 82 bc ea a5 9f 3d
       0.11667445 0.13684024 -0.01596672 0.077953175
0000a0 77 cb e8 be 81 43 a1 3e 48 e1 7a 3e 95 3f dd 3d
       -0.4546773 0.31496814 0.245 0.10803143
0000b0 62 82 25 be 00 6f 25 be 7a 5a 83 3d 43 e7 40 be
       -0.16163018 -0.16155624 0.064137414 -0.1883822
0000c0 e0 dc 62 3c 3b 8e 96 be 3f 6e 74 bd 04 dd 45 be
       0.013846606 -0.29405388 -0.05967545 -0.19322592
0000d0 43 c4 f4 bb 62 01 0c be e0 ce 1c bd 34 46 c6 3d
       -0.0074696853 -0.13672403 -0.03828323 0.09681359
0000e0 69 0d dd bd f7 ab 8f be 9d 8a 0f be 4e ec c2 bd
       -0.107935734 -0.28060886 -0.1401772 -0.09517728
0000f0 42 e9 21 3c 85 c4 a4 3e 38 57 0c 3d f4 e4 0e 3d
       0.009882273 0.32181183 0.034262866 0.034886315
000100 42 c9 ad 3e 4e eb 64 3e e0 7a d6 3d 34 c5 12 3e
       0.3394261 0.22355387 0.10472655 0.1433304
000110 79 e4 28 3f 56 75 05 3f 7e e2 d0 3c ac 5b fd 3e
       0.6597362 0.52132165 0.025498625 0.49484003
000120 bc 84 f8 3d ee 0f 9d 3e fe 79 8d 3e 3c 9f 8d 3e
       0.12134692 0.30676216 0.27632135 0.2766055
000130 5c fb aa 3e 43 ca aa 3e 7a f0 c2 3e cf 2c 20 3f
       0.33394897 0.33357438 0.38074094 0.6256837
000140 e7 b6 b5 3d 42 4b 82 3e 51 9a c7 bc ac c7 71 3e
       0.088727765 0.25448042 -0.024365576 0.23611325
000150 14 89 16 3f 2a 8d 1f 3f 7f af 0f 3e 52 b1 99 3e
       0.58802915 0.62324774 0.1403179 0.30018097
000160 47 93 31 3e bc 14 da 3e 0a d0 b0 3e db a2 d9 3d
       0.17341338 0.42593944 0.3453372 0.10626765
000170 fe 93 2e 3e f2 b9 b6 3e d7 bc 3a 3f 25 65 e9 3d
       0.17048642 0.3568874 0.72944397 0.11396245
000180 49 90 50 3f eb c4 ed 3e c9 4c eb 3d 72 78 04 3e
       0.8147016 0.464393 0.11489255 0.12936571
000190 d4 55 98 3e a2 fb 9f 3e 94 54 35 3e 0c 4b 04 3f
       0.29752982 0.31246668 0.17708045 0.5167701
0001a0 3a 4c f5 3e f1 df 15 3f d4 ed c7 3e a8 a5 56 3e
       0.4790972 0.5854483 0.39048636 0.2096163
0001b0 db 59 02 3e 01 d5 4c 3e 60 a7 1f 3e 96 b3 31 3e
       0.1272959 0.2000313 0.15591192 0.17353663
0001c0 9a fd e5 3d ee 95 cc 3e b5 fa 23 3e 34 09 f7 3e
       0.11230011 0.39958137 0.16013606 0.4824921
0001d0 53 71 c3 3d d3 9f 95 be 0a 64 f5 3e 8b 81 09 bd
       0.09543099 -0.292235 0.47927886 -0.033570807
0001e0 a8 b6 07 3f b9 05 a1 3e 4b 81 b0 3e 7c 68 28 3e
       0.53013086 0.3144968 0.34473643 0.16446108
0001f0 80 d7 97 3e 47 6b 0a 3d 38 4d b0 3e c4 0b 8f 3e
       0.296566 0.033793714 0.34433913 0.27938664
000200 57 f6 4d 3e 42 ec 34 bd e7 0f 17 3e f2 e8 a5 bd
       0.20113502 -0.044170626 0.1475216 -0.081010714
000210 ec 66 82 3e 4e ac 9e 3c d6 85 5d bd 50 5a 39 3a
       0.25469148 0.01936927 -0.054082714 0.00070706476
000220 68 60 63 3e b3 92 20 3d 26 ca 96 3e 75 e3 60 be
       0.22204745 0.039202403 0.29451102 -0.21961768
000230 bf d4 c7 bd 56 48 5d 3e 25 20 82 be cc e0 0a 3c
       -0.09757375 0.21609625 -0.2541515 0.008476447
000240 a3 d5 1d be b0 45 94 3d 1d 21 23 3e 6e af 43 bd
       -0.15413527 0.07239854 0.159306 -0.047774725
000250 de 44 92 be 76 dc 98 be 83 c3 36 be 9a 66 13 3d
       -0.28568166 -0.29855698 -0.1784802 0.03598652
000260 8e 98 ea bd 18 41 9d bd b6 00 20 3e d6 cf 48 bc
       -0.11454879 -0.07678431 0.15625271 -0.012256583
000270 2a 79 24 be 85 75 51 3e d9 19 4a be 1a 46 6d be
       -0.16061845 0.20454986 -0.19736423 -0.23171273
000280 d7 91 7a 3e 09 9a 45 3e f8 13 6c bd d6 27 5c bd
       0.24469696 0.19297041 -0.05763623 -0.053748928
000290 82 18 45 be c7 85 bb 3e 14 55 fc bc 93 24 23 3d
       -0.1924763 0.36625502 -0.030802287 0.0398298
0002a0 07 cc 98 bd 93 c4 92 3d 42 a4 00 3e 5c 6f 3e 3e
       -0.0746079 0.071664 0.1256266 0.18597168
0002b0 59 19 a0 3c 08 d0 cd bd 6f 14 99 3d 69 2b 1b be
       0.019543337 -0.100494444 0.074746005 -0.15153278
0002c0 67 9a 96 3d 52 56 e4 bd d1 fd 8e 3e bd 55 ac 3d
       0.07353669 -0.11149277 0.27928022 0.08414791
0002d0 26 7b c0 3d 22 e0 e3 3c 5c 63 98 3d 7c 07 48 be
       0.09398489 0.027816836 0.07440826 -0.19534105
0002e0 be e5 83 be f0 5c be bc 02 2b ae bd 63 67 85 bb
       -0.25761217 -0.023237675 -0.08504297 -0.0040711625
0002f0 de 10 23 3d f9 7b af 3b 86 a8 af bd 9f f9 40 3d
       0.039811008 0.005355355 -0.08577065 0.047113057

gru.bias_hh_l1 f4 [192]
000000 6c 04 62 3d ce 48 8d be 40 3b 3f be 9c f8 e6 be
       0.05518 -0.27594608 -0.18674946 -0.4511155
000010 98 c6 70 3e 46 c7 44 3e b9 19 7f be bd ae 82 be
       0.23513258 0.19216642 -0.24912156 -0.2552394
000020 20 5d 1a 3e 96 2a 34 bd f4 d3 32 be 5f 10 c7 bd
       0.15074587 -0.043985926 -0.17463666 -0.097199194
000030 72 b6 53 be ad 39 02 3c 49 8f 46 3e 75 71 30 3e
       -0.20675066 0.007948321 0.19390596 0.1723078
000040 90 98 2f 3d a9 71 29 3e f7 9c c8 b9 00 d9 54 be
       0.042870104 0.16547264 -0.0003826392 -0.20785904
000050 c7 32 ce 3e 12 f6 1e 3e 0f 7b 11 3c cf 1b 63 be
       0.40273115 0.15523556 0.008879437 -0.22178577
000060 ed c0 77 bc 7d 4b c9 3d 3a be 86 3e 7e 80 6a bd
       -0.015121681 0.09828851 0.26317006 -0.057251446
000070 0b 2c d4 3d 6b b4 9e bd f0 94 2c be db 01 0a 3e
       0.10359963 -0.07749256 -0.1685369 0.1347727
000080 23 b1 ce 3e ca 67 33 be 97 2f f2 bd fb 51 50 be
       0.4036952 -0.17520061 -0.11825483 -0.20343773
000090 01 27 0d bd 22 62 56 3e 22 68 cf bd e5 1e 0a 3d
       -0.034461025 0.20935872 -0.10127284 0.03372087
0000a0 a5 cd 02 bf be 38 a6 3e 3b 1c a2 3e 7a 3a b0 3d
       -0.5109504 0.32465166 0.31662163 0.086049035
0000b0 73 45 08 be b9 2a bf bc e5 9a 4f 3d 6c 85 44 be
       -0.13307743 -0.023335801 0.05068483 -0.19191521
0000c0 56 42 13 3e f9 08 d7 bd a5 00 ea 3d c9 6c 9f be
       0.14380774 -0.10499758 0.11425904 -0.31137684
0000d0 2d e9 ea bc 3c c8 28 bc 87 f2 e9 3d 73 df b9 3d
       -0.02867564 -0.010301646 0.114232115 0.09075823
0000e0 1a 50 8f 3d cd be 64 be a0 b3 fb ba 0d 08 9d 3b
       0.069977 -0.2233841 -0.0019203313 0.0047922195
0000f0 66 c4 03 be 5d 16 98 3e 4b 3d ac 3d 84 88 8c bd
       -0.12867889 0.29704562 0.08410128 -0.06861976
000100 b3 cf e1 3e 52 83 ae 3e 60 a5 44 3c 43 dc 57 3e
       0.44103774 0.34084564 0.012002319 0.21080117
000110 65 67 17 3f ad 3b cc 3e 4f d1 c7 3d e4 99 f6 3e
       0.5914214 0.3988928 0.09756719 0.48164284
000120 8c ef 84 3e 5a 8a 46 3e 6c 4b a5 3e 4b 2f 4b 3e
       0.2596401 0.19388714 0.32284105 0.1984226
000130 30 65 ae 3e 35 68 a7 3e c0 13 b1 3e 40 0c 1f 3f
       0.34061575 0.3269669 0.3458538 0.62128067
000140 1b c4 43 3e 5e 89 c2 3e c2 f0 03 3e a0 28 94 3e
       0.19117777 0.37995428 0.1288481 0.28937244
000150 9f 94 1a 3f cd 1d e1 3e 60 65 2c 3e e0 0d 95 3e
       0.6038303 0.4396805 0.16835546 0.29112148
000160 27 76 9b 3e c0 f6 ab 3e c5 a7 b6 3e 07 ac e4 3c
       0.3036358 0.33586693 0.35674873 0.02791406
000170 2a 02 70 3d d9 33 86 3e 66 2b 32 3f 68 d2 06 3e
       0.058595814 0.26211432 0.6959747 0.13166201
000180 01 86 37 3f bc 7d b7 3e cb d7 64 3e 13 dc 16 3e
       0.7168885 0.35838115 0.22347943 0.14732389
000190 96 3b 78 3e 9c e7 91 3e bf fd 65 3e b3 ab 09 3f
       0.2424148 0.28497016 0.22460078 0.5377762
0001a0 a6 64 8e 3e c3 e4 18 3f 06 7a a1 3e 0e 45 78 3e
       0.27811164 0.5972406 0.3153841 0.24245092
0001b0 2f 3c b9 3d 3e 71 9b 3e 9b d3 01 3e d1 4b cd 3d
       0.09044682 0.30359834 0.12678377 0.100242265
0001c0 61 a1 98 3e 8e 4d 5d 3e 83 92 5c 3e 33 bd 1b 3f
       0.29810622 0.21611616 0.21540265 0.6083557
0001d0 ac fc 05 bd ba a2 2f be 7a 54 e9 3e 30 31 d1 3b
       -0.03271167 -0.17151919 0.45572263 0.0063840374
0001e0 35 ca 13 3f 05 8a 96 3e 91 27 cb 3e 37 a5 26 3e
       0.5773042 0.29402176 0.39678624 0.16273962
0001f0 c6 37 b6 3d 02 fc aa 3d 08 24 ce 3e 35 2e 2f 3e
       0.08897357 0.08348848 0.40261865 0.1710747
000200 2a d9 0e 3e 3b ee 7e be 01 67 ae bb b1 bd e2 bc
       0.13950029 -0.24895565 -0.0053223376 -0.027678343
000210 bb f6 89 3e 19 ce ba 3d d7 62 95 be 58 a7 a2 bc
       0.26946053 0.09121341 -0.2917697 -0.019855186
000220 b4 b0 1d 3e 03 be 83 be b0 92 7a 3e 36 a5 a7 bd
       0.15399438 -0.25730905 0.2447002 -0.08185808
000230 07 17 90 bd b4 40 e0 3d 76 c6 54 bd 7b 8b bc bd
       -0.07035642 0.10949841 -0.05194708 -0.09206291
000240 1a 3b a2 bd 92 7e a6 bd a2 89 91 bd 20 d7 ad bd
       -0.07921429 -0.0812961 -0.071063295 -0.084882975
000250 01 83 9b be d1 87 0b be e3 c0 87 be 2e 4b d7 bd
       -0.30373386 -0.13626029 -0.26514348 -0.10512386
000260 40 0e 41 be d7 cf 1b 3e 26 56 9b 3e dc 46 c9 bd
       -0.18853092 0.15216003 0.30339164 -0.098279685
000270 3e 33 2b be b2 f0 25 3e 1a 45 3e bd 9c 6f d1 bc
       -0.16718766 0.16205099 -0.04645262 -0.025565915
000280 b3 d0 a7 3d 84 51 ba 3d e9 b2 3c 3e 2f 5f 1b 3d
       0.08194103 0.09097579 0.18427624 0.03793257
000290 6c 68 60 bc 1c 3a 8f 3d 0b b2 65 bd 1b 1d 4a 3e
       -0.013696771 0.06993505 -0.056077998 0.19737665
0002a0 94 1b 4e bd dc c4 40 3e be 0b 07 be b0 4c f5 3c
       -0.05031927 0.18825096 -0.13188073 0.029943794
0002b0 d3 5b f2 3d 20 58 93 be 21 df 0f 3e 09 18 54 be
       0.1183392 -0.28778172 0.1404996 -0.20712294
0002c0 a1 d5 78 3e 21 60 20 be 52 8e 01 3e 8e e8 89 3d
       0.24300243 -0.1566167 0.12651947 0.067338094
0002d0 44 54 86 bc bd 01 c7 bd 7b 3f d9 3d 4b c0 a6 be
       -0.016397603 -0.097171284 0.10607811 -0.32568583
0002e0 cf 2f fe bd c2 f0 9b be 0f dc b0 bc f1 c1 28 be
       -0.124114625 -0.3045712 -0.021589307 -0.16480233
0002f0 a8 c8 b9 bc 41 90 ef bd a2 8f 53 be 0c 50 54 3e
       -0.022678688 -0.11697436 -0.2066026 0.2073366
